gru_model.pt (torch, 77993 bytes, 15 tensors)

lstm.weight_ih_l0 f4 [96, 24]
0	0x3f6ed0a7	0.9328713
1	0xbee5cbdb	-0.44882092
2	0x3fbabbbc	1.4588542
3	0xbfdfea6e	-1.7493417
4	0x3f919446	1.1373374
5	0xbe85afb3	-0.2611061
6	0xbf4b1b09	-0.7933813
7	0x3f902412	1.1261008
8	0xc02c1a87	-2.689119
9	0xbfcbcf9f	-1.5922736
10	0xbfe652bc	-1.7993999
11	0x3fffbaa7	1.9978837
12	0xc02986a5	-2.648843
13	0xbfc7a2e4	-1.5596585
14	0x40065a12	2.0992475
15	0xbecbab9b	-0.39779362
16	0xc009e5e5	-2.1546566
17	0x3fd6974e	1.6764925
18	0x4014de96	2.3260856
19	0x3fccd703	1.6003116
20	0x3edfad72	0.43687016
21	0x3f1c6f0b	0.6110694
22	0xbf70fe0b	-0.9413764
23	0xc004b1fa	-2.0733628
24	0x3ecb536d	0.39712086
25	0x3da7334c	0.08164081
26	0x3fb8fb97	1.4451779
27	0x3fa89b21	1.3172342
28	0x3e402894	0.1876548
29	0xbf593af6	-0.8485559
30	0xbf9efd6c	-1.2421088
31	0x3e7f4160	0.24927282
32	0x3e410048	0.18847764
33	0x3ea53453	0.32266483
34	0x3ddcb4aa	0.107766464
35	0x3f836f0b	1.0268263
36	0xbdeca158	-0.115542114
37	0xbe6128d9	-0.21988238
38	0xbf670af8	-0.9025111
39	0xbe619ce0	-0.220325
40	0x3eac571d	0.33660212
41	0x3fb9fc2f	1.4530085
42	0x3fd8b83d	1.6931225
43	0x3fb3102c	1.398931
44	0x3f0d7634	0.5525849
45	0xbf0a63ea	-0.54058707
46	0xc01f6c9f	-2.4910047
47	0xbfb0e8ff	-1.3821105
48	0x3f6e4f73	0.9308998
49	0xbf8b467d	-1.0880886
50	0x3f1237ef	0.571166
51	0x3f556b67	0.8336701
52	0x3e8cafc4	0.2747785
53	0x3fa41ceb	1.2821325
54	0xbea3cbb4	-0.3199135
55	0x3f237b09	0.6385961
56	0x3f413da8	0.75484705
57	0xbf9cd7cf	-1.225336
58	0xbfda36fb	-1.7048029
59	0x3d816ece	0.063199624
60	0xbf5f1bd2	-0.87151825
61	0xbe529d2d	-0.2056777
62	0x4026f255	2.6085408
63	0xbfad17a9	-1.3522846
64	0x3de8e759	0.11372251
65	0xbfa60e40	-1.2973099
66	0xbf5e87a2	-0.8692571
67	0x3f6561aa	0.8960215
68	0x3f9c608b	1.2216963
69	0x3f3451ff	0.70437616
70	0x402ae7f3	2.670407
71	0xbd5dd4db	-0.054158073
72	0x3e909218	0.2823646
73	0xc03da18f	-2.9629858
74	0x3ef1e3fd	0.47244254
75	0xbfd5b2f5	-1.6695238
76	0x3e399a06	0.18125162
77	0x3f4dd78a	0.8040701
78	0xbd5c569b	-0.05379353
79	0xbfc7bd57	-1.5604657
80	0xbf655ecc	-0.89597774
81	0x3f91aa20	1.1380043
82	0x3faabce5	1.3338896
83	0x401fedd7	2.4988916
84	0x402871b2	2.6319394
85	0x3fd28be5	1.6448942
86	0x3edd8ace	0.43269962
87	0x3f868f80	1.0512543
88	0x40a4bcc4	5.1480427
89	0x3f105e43	0.5639383
90	0x3fb5694c	1.4172759
91	0xbf27f097	-0.65601486
92	0x3fb76b10	1.4329548
93	0x4000247e	2.0022273
94	0x3ef27d67	0.473613
95	0x40625c98	3.5369015
96	0xbf8f995f	-1.121868
97	0xbfc3d03a	-1.5297921
98	0x3feb40ac	1.8379111
99	0xbd072b70	-0.03300041
100	0xbd36911a	-0.044571973
101	0x406ace3c	3.6688375
102	0xbfe370c3	-1.7768787
103	0xbf12c8ca	-0.5733763
104	0xbf921f9b	-1.1415895
105	0xbf6274e4	-0.8845961
106	0xbdd2ff69	-0.10302622
107	0x402fb6f5	2.7455418
108	0xc076fb0c	-3.8590727
109	0xc010d13c	-2.2627707
110	0xbfa0b65e	-1.2555654
111	0xbe62d1e6	-0.22150382
112	0x4026d9c2	2.607041
113	0xbe23c766	-0.15994033
114	0x40407bd8	3.0075588
115	0xbfb80290	-1.4375782
116	0x400c8bb2	2.1960263
117	0x402a6a52	2.6627393
118	0xbdd89bf8	-0.10576624
119	0xbf1cc9f6	-0.6124567
120	0x3cb0676e	0.021533694
121	0x3fa9bf42	1.3261492
122	0x3ff70fcb	1.9301695
123	0x3e9991f3	0.29994163
124	0x3f97eaa3	1.186848
125	0xbe710473	-0.23536853
126	0xbe8d3825	-0.27581897
127	0x3e32d720	0.17464876
128	0xbee3878f	-0.4443936
129	0x3f7eb2cc	0.9949157
130	0xbe7ac2af	-0.24488328
131	0x3ffec99c	1.9905276
132	0xbf43c57f	-0.7647323
133	0xbf11331d	-0.5671862
134	0x3fc50d31	1.5394651
135	0x3efebf68	0.49755406
136	0x3f85e235	1.0459658
137	0xbf70b6db	-0.94029015
138	0x3f336e27	0.70089954
139	0x3e98cb35	0.29842535
140	0xbde014bc	-0.10941455
141	0x3e92331e	0.28554624
142	0xbf3c03f3	-0.73443526
143	0x3ec03f7b	0.37548432
144	0x3ebd8986	0.37018985
145	0xbec6f201	-0.3885651
146	0x3f8ebe57	1.1151837
147	0x403587dc	2.8364172
148	0x406ce892	3.701695
149	0xbe273d87	-0.16332065
150	0xc003e201	-2.0606692
151	0x3f624bc1	0.8839684
152	0xbf9b323c	-1.2124705
153	0x3fee1c05	1.8602301
154	0x405eb96c	3.4800673
155	0xbe82356a	-0.25431377
156	0x4089c505	4.3053
157	0x3f1f6ae8	0.622725
158	0x4002e1e2	2.0450368
159	0x40028962	2.0396352
160	0xc00f2ba9	-2.2370398
161	0x3d6c4a63	0.05768813
162	0x4083f1a3	4.1232467
163	0x40998d95	4.798533
164	0x3dc2713c	0.09494254
165	0xbf92df74	-1.1474442
166	0xbd461c58	-0.048366874
167	0xbfa33d6a	-1.2753117
168	0xbe9f3ec4	-0.31102574
169	0xc001a0f1	-2.025448
170	0xbcf4638f	-0.02983263
171	0xbf642f84	-0.89135003
172	0x3f74ce07	0.9562687
173	0xbffc911a	-1.9731781
174	0xbe964b09	-0.29354122
175	0xbecfe859	-0.40606955
176	0x3f0df8b0	0.5545759
177	0x3fb479fa	1.4099724
178	0x3f4ba6e8	0.79551554
179	0xbee1409e	-0.43994612
180	0x3f395f78	0.724113
181	0xbbe54580	-0.0069968104
182	0x3fb66f53	1.4252723
183	0x3d38b6f7	0.045096364
184	0xbeb2b597	-0.34904167
185	0xbfc1f4af	-1.5152797
186	0xc00a06af	-2.156658
187	0x3f9cdf0d	1.225557
188	0xbded7ab1	-0.11595667
189	0x3eda015a	0.42579156
190	0x3f115cc7	0.5678219
191	0xbf7a2feb	-0.97729367
192	0x3f994b69	1.1976138
193	0xbd860c62	-0.065453306
194	0x400e1066	2.219751
195	0xbf314d63	-0.6925871
196	0xbe0654a6	-0.13118228
197	0xbff7691a	-1.932895
198	0xc055a88b	-3.338412
199	0x3e00ae1b	0.12566416
200	0x3f724b0e	0.94645774
201	0xbe75f335	-0.24018557
202	0xbe330a74	-0.17484456
203	0x4013c61b	2.3089664
204	0x3f567c73	0.83783644
205	0xbfcd4029	-1.6035205
206	0xbf97a6f8	-1.184783
207	0x4010eee5	2.264581
208	0x3e9f4f91	0.31115392
209	0x4006879a	2.1020265
210	0xbfde3ba8	-1.7361956
211	0x3f270c87	0.6525349
212	0xbe7dae56	-0.24773535
213	0xbf636696	-0.8882841
214	0xbf581994	-0.8441403
215	0xbffd5703	-1.9792179
216	0xbf86acc0	-1.0521469
217	0xbff7309b	-1.9311708
218	0x4034ff9b	2.828101
219	0x3d4be382	0.049777515
220	0xbffc5858	-1.971446
221	0x3dc67272	0.096897975
222	0xc021cb10	-2.528019
223	0x3fe137cf	1.7595156
224	0xc00c28e4	-2.1899958
225	0x3fc642da	1.5489151
226	0xbfa92158	-1.3213301
227	0xbfa60ce3	-1.2972683
228	0x4015e1f7	2.3419168
229	0x3fd80200	1.687561
230	0x3eeb1649	0.4591544
231	0x3f7e3648	0.99301577
232	0x3fcd9644	1.6061482
233	0x400acd75	2.16879
234	0x3fe2b958	1.7712812
235	0xbe08cd63	-0.13359599
236	0x3fddb301	1.7320253
237	0xbf67ef1b	-0.9059922
238	0xbfa2cf01	-1.2719423
239	0xbfef9cf2	-1.8719771
240	0x3f1127b4	0.5670121
241	0xbf7b668e	-0.9820336
242	0x3fead169	1.8345157
243	0x3fe54480	1.791153
244	0x403cdf0a	2.9511132
245	0xbf40377b	-0.75084656
246	0xbf8f028a	-1.117265
247	0x3eb02efc	0.34410846
248	0xbfc665c3	-1.5499805
249	0xbe89be50	-0.2690301
250	0x3fb00c4a	1.375375
251	0xbf280e61	-0.6564694
252	0x3f440397	0.7656798
253	0xbf1d2f64	-0.6140044
254	0x3ed45d9e	0.41477674
255	0xbf5a21f8	-0.8520808

lstm.weight_hh_l0 f4 [96, 32]
0	0x3ceceec7	0.028922452
1	0x3dc55b93	0.09636607
2	0x3e0c9a37	0.13730703
3	0x3da46222	0.0802653
4	0xbbeb0187	-0.007171813
5	0x3d774aac	0.060373947
6	0xbe333b54	-0.175031
7	0x3c998d59	0.018744158
8	0xbd07f1df	-0.03318965
9	0xbde386bd	-0.11109684
10	0x3db232f0	0.08701122
11	0x3d26b1df	0.040696975
12	0xbe153bf4	-0.14573652
13	0xbdcc442b	-0.099739395
14	0xbd9acaed	-0.07558236
15	0xbe2c64f5	-0.16835387
16	0xbdf310e9	-0.1186846
17	0x3e1dbf5c	0.15405029
18	0x3c515ec8	0.012778945
19	0x3d83a025	0.064270295
20	0x3dede395	0.116156735
21	0xbc72691b	-0.014795567
22	0x3e02e074	0.12780935
23	0xbdbabfff	-0.091186516
24	0x3e1920e2	0.1495395
25	0x3d372d3e	0.04472088
26	0xbe322769	-0.17397846
27	0x3dfbbb2e	0.12291561
28	0xbe280d78	-0.16411388
29	0xbe2a4286	-0.16626939
30	0xbdcadd83	-0.09905531
31	0x3d0dc08b	0.03460745
32	0x3d832461	0.06403423
33	0xbe0d7022	-0.13812307
34	0x3e2de12f	0.16980432
35	0x3d4fb73f	0.050711866
36	0xbdd38eb6	-0.10329954
37	0xbcca3930	-0.024685472
38	0xbe168f59	-0.1470312
39	0xbdd841d7	-0.10559433
40	0x3c227942	0.009916605
41	0xbe331835	-0.17489703
42	0x3dec7e9d	0.11547587
43	0xbdb1a0ff	-0.08673286
44	0xbe028216	-0.12744936
45	0xbd31d224	-0.043413296
46	0xbe30fb80	-0.1728344
47	0x3d795d94	0.06088026
48	0xbd9b15e4	-0.07572535
49	0x3d125306	0.03572371
50	0x3ddc757c	0.10764596
51	0xbe155020	-0.14581347
52	0x3d104978	0.035226315
53	0x3d2639e2	0.040582545
54	0xbd656510	-0.056004584
55	0x3e0fd60f	0.140465
56	0x3cc30c42	0.023809556
57	0x3dfd08bf	0.12355184
58	0x3e14294a	0.14468876
59	0xbd92c57a	-0.07166572
60	0xbe2aa380	-0.16663933
61	0x3c2caf6e	0.010539873
62	0x3b1fdc83	0.002439291
63	0xbd379da1	-0.04482806
64	0xbde57a82	-0.11205007
65	0xbc1677d1	-0.00918384
66	0x3caf3e6f	0.021392075
67	0x3d661ec4	0.056181684
68	0xbdb1438d	-0.086554624
69	0x3d0a4246	0.03375461
70	0xbe2a80a1	-0.1665063
71	0xbe238833	-0.15969925
72	0xbdb53516	-0.08848016
73	0xbe2e36fb	-0.17013161
74	0x3d3b1d45	0.04568221
75	0x3e2305ca	0.15920177
76	0x3dabd164	0.083895475
77	0x3e1e2912	0.15445355
78	0xbe0ebb2a	-0.13938585
79	0xbe0be60d	-0.13661976
80	0xbc83d3d2	-0.016092215
81	0xbd06e592	-0.03293378
82	0x3d9027cb	0.0703884
83	0xbd60ff15	-0.054930765
84	0xbde43a22	-0.111439005
85	0xbd958efb	-0.07302662
86	0xbc9baaae	-0.019002285
87	0x3d1b8da5	0.03797688
88	0x3e301fca	0.17199627
89	0x3ddc1795	0.107466854
90	0xbddcc404	-0.107795745
91	0xbd9d87d9	-0.076919265
92	0xbe2a4515	-0.16627915
93	0xbdbf8d1a	-0.09353085
94	0xbe005a56	-0.1253446
95	0x3dfecd16	0.12441461
96	0xbd564574	-0.05231233
97	0x3d83c643	0.064343
98	0x3d4a0be3	0.049327742
99	0x3e12faac	0.14353436
100	0x3e187c07	0.14891063
101	0x3e20b89f	0.15695427
102	0x3d816873	0.0631875
103	0x3bd5824b	0.0065157763
104	0xbdbbe2f3	-0.091741465
105	0xbce59ed9	-0.028029846
106	0xbda2d036	-0.07949869
107	0x3e2d7b73	0.16941623
108	0xbdbf1f6a	-0.09332164
109	0xbe097f58	-0.13427484
110	0x3e066259	0.13123454
111	0x3e2070e8	0.1566807
112	0xbd10ca24	-0.035349026
113	0x3da8630d	0.082220174
114	0xbdbaf50a	-0.09128769
115	0x3e2f1300	0.17097092
116	0x3e0db816	0.13839754
117	0x3d896b6a	0.06709941
118	0x3d665a57	0.0562385
119	0x3dba30f9	0.09091372
120	0xbe163120	-0.14667177
121	0xbe3487c6	-0.17629918
122	0xbe027fee	-0.12744114
123	0xbde801d5	-0.113284744
124	0xbe1fc15c	-0.15601104
125	0x3d85b030	0.06527746
126	0xbdb69918	-0.08915919
127	0x3e1d3887	0.15353595
128	0x3d8fdc7c	0.07024476
129	0x3d9b8e55	0.07595507
130	0xbdd370b1	-0.103242286
131	0x3e1e793b	0.15475933
132	0xbd8da311	-0.06915868
133	0x3c5b69e9	0.01339195
134	0xbd86379f	-0.06553578
135	0xbdb5e51a	-0.08881588
136	0xbe067813	-0.13131742
137	0xbe040b40	-0.12894917
138	0xbe1156bb	-0.14193241
139	0x3d40d780	0.047080517
140	0x3aca2b44	0.0015424271
141	0xbcc77fef	-0.024352996
142	0x3c1a742c	0.009427112
143	0x3d820825	0.0634921
144	0xbd64893e	-0.055794947
145	0x3e2842a8	0.16431677
146	0x3df2120b	0.11819848
147	0x3d632a24	0.05546011
148	0x3d95a49d	0.07306788
149	0x3c5d61e7	0.013512111
150	0x3e2780f1	0.16357781
151	0xbe333e5e	-0.1750426
152	0xbd596e24	-0.053083554
153	0x3c8d6701	0.01726103
154	0xbdf9e472	-0.122017756
155	0xbe1ca71b	-0.1529812
156	0x3e285e66	0.1644226
157	0xbe0ef4c8	-0.13960564
158	0x3e1ef5f3	0.1552351
159	0x3de1c316	0.11023538
160	0xbde4316d	-0.1114224
161	0x3d46429f	0.04840338
162	0x3e04d56b	0.12972037
163	0x3d21d8c4	0.039513364
164	0xbe2e65cb	-0.17031018
165	0xbdf9f27a	-0.12204452
166	0x3a8c23c5	0.0010691812
167	0x3d0f15b9	0.034932826
168	0xbd88dd08	-0.06682783
169	0x3d834841	0.06410266
170	0x3e0d0041	0.13769628
171	0x3e1c3b75	0.15257056
172	0x3e27e745	0.16396816
173	0x3e2a7bc6	0.16648778
174	0xbd86b53e	-0.06577538
175	0x3dc792c6	0.09744792
176	0x3d9e8599	0.077403255
177	0x3d956201	0.072940834
178	0xbbcb661b	-0.0062072403
179	0xbc238fae	-0.009982986
180	0xbcc3e0b3	-0.023910856
181	0xbd931115	-0.071809925
182	0xbdb3d3a2	-0.087806
183	0x3d0f016a	0.034913458
184	0x3d885dfc	0.06658551
185	0x3cdb6824	0.026783057
186	0xbdb3359e	-0.08750461
187	0xbd40cc19	-0.047069643
188	0x3d2bf6d5	0.041983444
189	0x3daf121b	0.08548375
190	0x3d5605a3	0.05225147
191	0x3e0a253e	0.1349077
192	0xbe00af9b	-0.12566988
193	0xbe336c6e	-0.17521831
194	0x3df5c34d	0.12000141
195	0x3deed816	0.11662309
196	0xbb46b926	-0.003032276
197	0x3d34d04b	0.044143956
198	0x3e223cd5	0.15843518
199	0x3c842b53	0.01613394
200	0x3d98ec37	0.074669294
201	0xbc0e75a6	-0.008695042
202	0xbe1f5e00	-0.15563202
203	0xbdf65f7b	-0.1202993
204	0xbab2a85f	-0.0013630501
205	0x3db8c344	0.09021619
206	0xbd71bb3f	-0.059016462
207	0x3db8b1f7	0.09018319
208	0x3df7e146	0.121035144
209	0xbe2f7f77	-0.17138468
210	0x3cc02291	0.023453983
211	0x3d4e9f63	0.05044497
212	0xbd94e0cd	-0.0726944
213	0xbe224454	-0.15846378
214	0xbd6a30b6	-0.05717536
215	0x3dfdf15d	0.12399552
216	0x3df35161	0.11880756
217	0x3ddd7f3f	0.10815286
218	0xbc3b40b6	-0.0114290025
219	0xbdf9976d	-0.12187085
220	0xbdac6568	-0.08417779
221	0xbd148b35	-0.03626557
222	0x3c2d901d	0.010593441
223	0xbe240034	-0.16015702
224	0x3dc988e0	0.0984056
225	0xb87612ba	-5.866841e-05
226	0xbdb735bd	-0.08945797
227	0x3d45cfac	0.048293754
228	0x3d24a5b5	0.040197093
229	0xbe23ecac	-0.16008252
230	0xbc4c93dd	-0.012486425
231	0xbc860af7	-0.01636265
232	0xbc6c6ea9	-0.01443068
233	0xbe18c8fe	-0.14920422
234	0x3d3b4637	0.04572126
235	0x3d5ab80d	0.05339818
236	0xbd83febb	-0.0644507
237	0xbdde7886	-0.10862832
238	0xbbbf570e	-0.005839235
239	0xbda16300	-0.07880211
240	0xbd91e0e8	-0.071229756
241	0x3cffa228	0.031205252
242	0xbdaf7e89	-0.085690565
243	0x3defc2b4	0.117070585
244	0x3dd58ea2	0.10427596
245	0x3e05ccc4	0.13066393
246	0x3d8bb2f4	0.06821242
247	0xbd1e1c84	-0.038601413
248	0x3d8cbfbb	0.06872507
249	0x3cfce510	0.030870944
250	0xbe3224ca	-0.17396846
251	0x3e052af6	0.1300467
252	0x3d2fee64	0.042951956
253	0xbd9491c0	-0.07254362
254	0xbd5d5e47	-0.054044988
255	0x3de6d0e1	0.11270309

lstm.bias_ih_l0 f4 [96]
0	0xbfdc5704	-1.7214055
1	0xc08182a1	-4.047196
2	0xc0282e06	-2.627809
3	0xbeb4004a	-0.3515647
4	0xbfe504dd	-1.7892109
5	0xc0132eb3	-2.2997253
6	0xbd7f3331	-0.06230468
7	0xbeceaef2	-0.40367848
8	0xc007a6eb	-2.1195629
9	0x3e98fcb2	0.2988029
10	0xbfe4b23d	-1.7866894
11	0xbff5d159	-1.9204513
12	0xbfcc766c	-1.597364
13	0xc034ef49	-2.8271048
14	0xc037f51d	-2.8743355
15	0xbff4428d	-1.908281
16	0x3f320ecf	0.69553846
17	0xbf84bb4c	-1.0369658
18	0xc04cd996	-3.2007804
19	0xc0148133	-2.3203857
20	0xbff012bc	-1.8755717
21	0xc00b6d53	-2.1785476
22	0xc042d130	-3.0440178
23	0xc04aeea5	-3.1708157
24	0xc0585bc4	-3.380601
25	0x3f2858be	0.6576041
26	0xbf9bb346	-1.2164085
27	0xbf885643	-1.0651325
28	0x3f0f6a60	0.5602169
29	0xbf9525a7	-1.1652116
30	0x400417bc	2.0639486
31	0xbfc82461	-1.5636102
32	0x3fcbe988	1.5930643
33	0x3f6885d3	0.908292
34	0x3f48080d	0.78137285
35	0x3fad32d1	1.3531133
36	0x3fd98784	1.6994481
37	0x3fe355bb	1.7760538
38	0x3f98741f	1.1910437
39	0x403fc5a0	2.996437
40	0x3f682e86	0.9069599
41	0x3fcd038b	1.6016706
42	0x40184e19	2.3797667
43	0x3f99e7f3	1.202391
44	0x3fbc5e47	1.4716271
45	0x3f4f843f	0.81061167
46	0x3f87d885	1.0612952
47	0x3fdccd67	1.7250184
48	0x4042f419	3.0461485
49	0x3f9911d6	1.1958568
50	0x3f8a7434	1.0816712
51	0x3ef36ac2	0.47542387
52	0x3ee58588	0.4482844
53	0x3ee8e1b0	0.45484686
54	0x3fa4311d	1.2827488
55	0x3f47749f	0.77912325
56	0x3d3eb2fc	0.04655741
57	0x40454c6a	3.082789
58	0x3f9dd55c	1.2330737
59	0x400f865e	2.2425761
60	0x3fb9d431	1.4517881
61	0x3fc5e348	1.5459986
62	0x3ffd0eee	1.9770181
63	0x3fda6590	1.7062244
64	0x3f2136f7	0.62974495
65	0xbf5148a1	-0.8175145
66	0x3ebe06eb	0.37114653
67	0x3f77a7f9	0.9674068
68	0x3eafcd0e	0.34336132
69	0xbf1460cc	-0.579602
70	0x3f416764	0.75548387
71	0xbcafb26a	-0.02144738
72	0xbe9d20c2	-0.30689055
73	0x3f73c4c4	0.95222116
74	0xbd075da1	-0.033048276
75	0xbe7f476b	-0.24929588
76	0xbed97d18	-0.4247825
77	0xbe833311	-0.25624898
78	0xbda76716	-0.08173959
79	0x3dd5a5a3	0.10431983
80	0x3f585d01	0.8451691
81	0xbf03f295	-0.51542026
82	0x3efdaa72	0.49544102
83	0xbf3c2073	-0.73487014
84	0x3e6671da	0.22504368
85	0xbec46089	-0.383549
86	0x3ebe6329	0.37185028
87	0x3e8f5d49	0.28000858
88	0x3ff98cf3	1.9496139
89	0xbf2b204b	-0.6684615
90	0x3db7a3ca	0.08966787
91	0x3f06efd7	0.52709717
92	0xbf8dde60	-1.1083488
93	0xbf0b34b2	-0.5437728
94	0xbfac8299	-1.3477355
95	0xbeacbb8e	-0.33736843

lstm.bias_hh_l0 f4 [96]
0	0xbfda1687	-1.7038125
1	0xc08a9095	-4.330149
2	0xc0293386	-2.6437697
3	0xbf22e24f	-0.6362657
4	0xbfe5a149	-1.7939845
5	0xc0164d0a	-2.348452
6	0xbe0c1884	-0.13681227
7	0xbf0e42f3	-0.55570906
8	0xc009d7f6	-2.1538062
9	0x3e248bcc	0.16068953
10	0xbffc87cf	-1.9728945
11	0xbffe59ae	-1.9871118
12	0xbfb5687e	-1.4172513
13	0xc03d1efe	-2.9550166
14	0xc046840a	-3.101809
15	0xc001e416	-2.0295463
16	0x3f50331e	0.81328
17	0xbf8375c9	-1.027032
18	0xc040296c	-3.0025282
19	0xc00a5550	-2.161457
20	0xc0096236	-2.1466193
21	0xc00c84f7	-2.1956155
22	0xc040b3c6	-3.0109725
23	0xc04e8c86	-3.2273269
24	0xc064d171	-3.5752833
25	0x3f61cb6c	0.8820102
26	0xbf8e05ff	-1.109558
27	0xbf97db9a	-1.1863892
28	0x3e9fcfb1	0.31213143
29	0xbf93acdb	-1.1537126
30	0x400acda6	2.1688018
31	0xbfa9ebb0	-1.3275051
32	0x3fe099f8	1.7546988
33	0x3f5b7985	0.857323
34	0x3f500dc9	0.81271034
35	0x3fc03e31	1.5018979
36	0x3fe09ce4	1.7547879
37	0x3ff4d299	1.9126769
38	0x3f956d33	1.167395
39	0x403ca7d7	2.9477441
40	0x3f425f17	0.75926346
41	0x3fd70a23	1.6799968
42	0x401ee214	2.4825487
43	0x3f8c6626	1.0968673
44	0x3fd345ac	1.6505637
45	0x3f8b40b7	1.0879124
46	0x3f81cf6c	1.0141425
47	0x3fc5ba7b	1.5447534
48	0x40363326	2.8468719
49	0x3f8ca9f3	1.0989364
50	0x3f5d0d69	0.8634859
51	0x3ef86438	0.4851396
52	0x3edeb497	0.43497154
53	0x3f03f56d	0.51546365
54	0x3f927f0f	1.1445025
55	0x3f4e5855	0.80603534
56	0x3e95e69f	0.29277512
57	0x404709cc	3.109973
58	0x3f8e2d90	1.1107655
59	0x40132211	2.2989542
60	0x3fd12628	1.6339769
61	0x3fa01633	1.2506775
62	0x3ffd1db3	1.9774688
63	0x3fec7a14	1.8474755
64	0x3f7b3aeb	0.98136777
65	0xbd446d28	-0.047955662
66	0xbdc3ced0	-0.09560931
67	0x3fb38d3c	1.4027476
68	0x3fa18242	1.2617877
69	0xbdb885df	-0.09009909
70	0x3ff3bd60	1.9042168
71	0xbefc4d11	-0.49277547
72	0xbed7561d	-0.42057887
73	0x3fd953f5	1.6978747
74	0xbdc9cfa8	-0.098540604
75	0x3f66e170	0.9018774
76	0x3f7da42d	0.9907864
77	0x3cf43f24	0.029815264
78	0x3e8595c8	0.26090837
79	0x3f63eac1	0.8903008
80	0x3f3c28df	0.73499864
81	0x3f978adb	1.183925
82	0x3d3069ad	0.04306953
83	0xbec73259	-0.389056
84	0xbf3ce81c	-0.7379167
85	0xbe8a9538	-0.2706697
86	0xbd90d498	-0.07071799
87	0x3e65d2c9	0.2244369
88	0x3c200abe	0.009768186
89	0xbf57f721	-0.84361464
90	0x3fdca1cb	1.7236875
91	0xbb22b759	-0.0024828522
92	0xbfcf97a4	-1.6218152
93	0x3f42a81d	0.7603777
94	0xbfcfed59	-1.6244308
95	0xbecb807a	-0.39746457

lstm.weight_ih_l1 f4 [96, 32]
0	0xbf93f06c	-1.1557746
1	0x3e6c2214	0.23059875
2	0x3f20ee8d	0.62864
3	0xbfec9565	-1.8483092
4	0xbfc7da2c	-1.5613456
5	0x3f0978a0	0.53699684
6	0x3f321cfb	0.6957547
7	0x3eca857b	0.39554963
8	0xbe39745c	-0.18110794
9	0xbe3ca808	-0.18423474
10	0xbf56514d	-0.83717805
11	0xc007d731	-2.1225092
12	0x3f29e4af	0.6636457
13	0xbf103657	-0.56332916
14	0x3fe13ff4	1.7597642
15	0x3f56ae90	0.8386011
16	0xbf80bf5a	-1.0058396
17	0xbfccd1d4	-1.6001534
18	0x3f07edae	0.53097045
19	0x3ff9d791	1.9518911
20	0x3eb5a203	0.35475168
21	0xbf8bde91	-1.0927297
22	0xc0500318	-3.2501888
23	0xbf3ad1d7	-0.7297644
24	0xc01047ff	-2.2543943
25	0x3fbac1e4	1.4590421
26	0x3e75c741	0.2400179
27	0x3cc8dca6	0.024519276
28	0x403b2ac7	2.924486
29	0xbf88ebc3	-1.0696949
30	0x3ea45fde	0.3210439
31	0xbf95803a	-1.1679757
32	0x3fc20e4a	1.5160611
33	0xbe8c71b2	-0.27430493
34	0xbfe96d00	-1.8236389
35	0xbf918f71	-1.13719
36	0x3f074d7c	0.52852607
37	0xbf24991a	-0.64296114
38	0xbcef15ba	-0.029185165
39	0x3f121d0a	0.5707556
40	0xbf996f13	-1.1987022
41	0xbf96d324	-1.1783185
42	0xc005aaee	-2.0885577
43	0xc011b9a0	-2.2769547
44	0xbf8dac7e	-1.1068265
45	0x3f1c29c3	0.61001223
46	0x3e84d036	0.25940102
47	0xbe5d95b8	-0.21639144
48	0xbf1a219e	-0.60207546
49	0xc03cf74f	-2.9525945
50	0xbee021af	-0.437757
51	0x3f5b6615	0.8570264
52	0xbf46f9b9	-0.77724797
53	0xbf882080	-1.0634918
54	0xbeb70583	-0.35746393
55	0xbda27d7e	-0.07934092
56	0xc00ea63e	-2.2288966
57	0x3f42f6e2	0.76157963
58	0xbe1d7ecc	-0.153804
59	0x3d59e724	0.05319895
60	0x3f00ecb1	0.5036116
61	0xc0334fd8	-2.8017483
62	0x3f35b1fc	0.7097471
63	0xbf19bb86	-0.60051763
64	0xbef1d762	-0.47234637
65	0xbe8f55cc	-0.27995145
66	0xbf03f9a9	-0.51552826
67	0xbf0f583e	-0.5599402
68	0xbf2bac51	-0.6705981
69	0x3f3702d4	0.7148869
70	0xbea9a93f	-0.33136937
71	0x3df1f495	0.118142284
72	0xbd3f4258	-0.04669413
73	0xbf956fa7	-1.1674699
74	0x3e29dbfe	0.16587827
75	0x3f84ba4e	1.0369356
76	0xbf0f56f6	-0.55992067
77	0x3e322a56	0.17398962
78	0xbfc088fe	-1.5041807
79	0xbeae117d	-0.33997717
80	0xbe979912	-0.2960897
81	0x3e9b7a4e	0.3036675
82	0x3e9f3cbb	0.3110102
83	0x3f77afca	0.9675261
84	0x3f9293b4	1.1451325
85	0x3f054541	0.520588
86	0x3fb2895a	1.3948166
87	0xbef2a8ab	-0.47394308
88	0xbf2b2a52	-0.6686145
89	0x3f71daa8	0.9447427
90	0xbfad5b3b	-1.3543466
91	0x3e4a9e21	0.19786884
92	0x3f27a03e	0.65478885
93	0x3e7bb742	0.24581626
94	0x3ea0c16c	0.3139757
95	0xbe590e60	-0.2119689
96	0xbeec4348	-0.46145082
97	0x3f3d836e	0.7402867
98	0x3e800d24	0.25010026
99	0xbe4a79af	-0.19772981
100	0x3eb5bd3d	0.3549594
101	0xbdbd5673	-0.092450045
102	0xbf087300	-0.53300476
103	0x3eafcc16	0.34335393
104	0x3f2526be	0.6451224
105	0xc01e0277	-2.4689004
106	0xbcbec18b	-0.023285648
107	0xbe372326	-0.17884502
108	0xbfdf9962	-1.7468684
109	0x3f096b53	0.5367939
110	0x3f1a2541	0.60213095
111	0xbf63c905	-0.88978606
112	0xbf34de5e	-0.70651805
113	0xbf820f9f	-1.0161017
114	0x3f16dc7b	0.58930176
115	0x3ea93e63	0.3305541
116	0x3ecd93b7	0.4015176
117	0x3e271091	0.16314913
118	0xbf2beb61	-0.67156035
119	0xbe81e983	-0.25373468
120	0xbfb63636	-1.4235294
121	0x3f9eaeca	1.2397091
122	0x3f1ce8a9	0.6129251
123	0xbeb318ee	-0.34979957
124	0x3fdedf48	1.741189
125	0xbfe4a5db	-1.7863115
126	0xbeefcad2	-0.46834427
127	0xbf2971d2	-0.661893
128	0xbf9815e7	-1.1881684
129	0x3f0655f4	0.52474904
130	0xbdca60a2	-0.098817125
131	0xbfd2c4a0	-1.6466255
132	0xbe122356	-0.14271292
133	0x3de7beec	0.11315712
134	0xbe964b3e	-0.2935428
135	0xbf318594	-0.6934445
136	0x3cf46367	0.029832555
137	0xbfe344a7	-1.7755326
138	0x3e244160	0.16040564
139	0x3ed94a63	0.42439565
140	0xbf2c512d	-0.67311364
141	0xbd3105a5	-0.043218274
142	0xbf10f747	-0.56627315
143	0x3f3bc8bb	0.73353165
144	0xbf83808d	-1.0273606
145	0xbdfe7611	-0.12424863
146	0xbd132a61	-0.035929088
147	0xbe8d6f08	-0.27623773
148	0x3f6c68d9	0.92347485
149	0x3ec50872	0.38483006
150	0xbeb143aa	-0.34621936
151	0xbf5ec06a	-0.8701235
152	0xbe84e9e8	-0.25959706
153	0x3fc53645	1.5407187
154	0xbf37fc98	-0.718698
155	0x3f0d254c	0.55135036
156	0x3fac6598	1.3468504
157	0x3ecd1230	0.40052938
158	0x3f853cdd	1.0409199
159	0xbf7ade67	-0.9799561
160	0x3e872b41	0.26400188
161	0x3f8b02b0	1.0860195
162	0x3ede03a7	0.43362162
163	0xc0621f62	-3.5331655
164	0x3fb6cce4	1.4281278
165	0xc033b247	-2.8077562
166	0x3fffb2fa	1.9976494
167	0xbea66908	-0.32502007
168	0x3f8a58a5	1.0808302
169	0xc0092576	-2.1429114
170	0x3f50a8a1	0.8150731
171	0x3de2f594	0.110819966
172	0xbf41d735	-0.75719005
173	0xbf5c3d56	-0.8603109
174	0x3f33b8c4	0.70203805
175	0x3f764f50	0.9621477
176	0xbfa31c7f	-1.2743071
177	0xc0373961	-2.8628771
178	0xbec0061d	-0.37504664
179	0xbdf573f2	-0.119850054
180	0xbe127427	-0.14302121
181	0x3eb8f348	0.3612311
182	0xbf3c6ff9	-0.73608357
183	0xbed717fb	-0.42010483
184	0xc0198765	-2.3988888
185	0x400ef3ab	2.2336223
186	0xbf3476e2	-0.704939
187	0x3f5f3099	0.8718353
188	0x402f9370	2.7433739
189	0xc0526295	-3.287267
190	0x3f360c38	0.71112394
191	0xbfd57912	-1.6677573
192	0xbfa58c11	-1.293337
193	0x3db839ab	0.08995374
194	0xbf95d6a9	-1.1706134
195	0xbf8d5deb	-1.1044286
196	0xbf638da3	-0.88887995
197	0xbdac9835	-0.08427469
198	0x3f90ce77	1.1313008
199	0xbed8389a	-0.42230684
200	0xbebe4747	-0.37163755
201	0x3e529d02	0.20567706
202	0x3fcd71e3	1.605038
203	0x3fb4ca2c	1.4124198
204	0x3e4c4f6b	0.1995217
205	0xbf5eb9af	-0.8700208
206	0x3e94b1da	0.2904194
207	0x3e1a06fc	0.15041727
208	0x3fabffec	1.3437476
209	0x3f6bb308	0.92070055
210	0xbd93f968	-0.07225305
211	0x3fa92627	1.3214768
212	0x405903cb	3.3908565
213	0x3fadae98	1.3568907
214	0x40445c97	3.0681512
215	0x3e1d0502	0.15333942
216	0x3eed4d36	0.4634797
217	0x3eb0a617	0.34501716
218	0xbf8bd417	-1.09241
219	0x3fa23895	1.2673517
220	0x3eece4c0	0.46268272
221	0x3f52e21e	0.8237628
222	0xbf23caa7	-0.639811
223	0x3fe3ecd5	1.780665
224	0xbf59cf3e	-0.8508185
225	0x3f4e86f0	0.8067465
226	0x401452a3	2.3175437
227	0xc0231fb2	-2.5488095
228	0xbe9801a0	-0.2968874
229	0x3e927a5b	0.28608975
230	0xbd0a6546	-0.033787988
231	0x3e3cb0e2	0.1842685
232	0x4000519c	2.004981
233	0x3e9d48e9	0.3071969
234	0x3ef3f8bf	0.47650716
235	0x3f30b05c	0.69019103
236	0x3f8435ec	1.0328956
237	0xbf82a8fb	-1.0207819
238	0xbef1ed1f	-0.47251222
239	0x3f847bd6	1.0350292
240	0xbe959b64	-0.29220116
241	0x3f744d49	0.9543043
242	0xbfa95b26	-1.3230941
243	0xbf2e8588	-0.681725
244	0x3e85f19e	0.26160902
245	0xbc8c9255	-0.01715962
246	0xc01c9e75	-2.4471714
247	0xbf3c6c42	-0.7360269
248	0xc0080612	-2.1253705
249	0xbf2ec814	-0.68274045
250	0xbf4e961e	-0.8069781
251	0xbf973424	-1.1812787
252	0xbf37b391	-0.7175837
253	0xbe8dbe51	-0.27684262
254	0x3e875772	0.26433903
255	0xbf2ecc5d	-0.68280584

lstm.weight_hh_l1 f4 [96, 32]
0	0xbe23e92e	-0.1600692
1	0x3c022a24	0.007944617
2	0xbc74b34c	-0.014935326
3	0x3c85cc2a	0.016332705
4	0x3e135e70	0.14391494
5	0xbdaf7503	-0.0856724
6	0xbe0a92f3	-0.13532619
7	0x3d8861cb	0.066592775
8	0xbe24f969	-0.16110767
9	0x3dd14d50	0.10219824
10	0x3e11baac	0.14231366
11	0x3d6f7e55	0.05847009
12	0xbd17cce9	-0.037060652
13	0x3de70822	0.11280848
14	0x3d7c3faa	0.061584152
15	0xbde01368	-0.109412014
16	0xbdb48077	-0.08813565
17	0x3bfee8f0	0.007779233
18	0xbdb0c19b	-0.08630677
19	0xbe17ad86	-0.14812288
20	0xbe0deb40	-0.13859272
21	0xbd2d3bd0	-0.04229337
22	0xbdfa1a79	-0.122120805
23	0xbd25e431	-0.040500823
24	0x3d598b77	0.05311152
25	0xbe146a99	-0.14493789
26	0xbdc9ddaf	-0.09856736
27	0x3d400e6a	0.046888746
28	0x3e12c0c8	0.14331353
29	0x3d48fa92	0.049067087
30	0xbdb9638c	-0.0905219
31	0x3e24db5a	0.16099301
32	0x3cdeb30f	0.027184991
33	0x3dde78f1	0.108629115
34	0xbddd497f	-0.10805034
35	0x3e147f9e	0.14501807
36	0x3e23a7ce	0.15981981
37	0x3d69d6a5	0.057089467
38	0x3bdf6c19	0.006818306
39	0x3d93c88e	0.07215987
40	0x3d55a748	0.052161485
41	0xbe1114ef	-0.14168142
42	0x3c05f33b	0.008175666
43	0x3dd8aeb7	0.10580199
44	0xbcaf14a0	-0.02137214
45	0x3d9f07b5	0.07765142
46	0xbc9d09d9	-0.019169735
47	0x3da6a1be	0.081363186
48	0x3e1a212f	0.15051721
49	0x3d6f5a23	0.05843557
50	0xbdf42e29	-0.11922867
51	0xbe1c4558	-0.15260828
52	0x3d0cbc7b	0.034359436
53	0xbd5849dd	-0.052804817
54	0xbe2c79c5	-0.16843326
55	0xbccd5668	-0.025065616
56	0x3e2467f2	0.16055277
57	0xbdc7b8d6	-0.097520515
58	0x3c4439ed	0.011976701
59	0xbbab4e69	-0.005227853
60	0x3c98375f	0.01858109
61	0x3b4f180a	0.0031600022
62	0x3c5b2cd5	0.013377388
63	0xbdc63e6f	-0.09679877
64	0x3e33df81	0.17565729
65	0x3de34a9d	0.11098216
66	0xbc19e6ee	-0.009393437
67	0x3ccce0c3	0.025009518
68	0xbdbd7d9d	-0.092524745
69	0xbe1b08ac	-0.15140027
70	0x3e0603cb	0.13087384
71	0xbd75b5ad	-0.059987713
72	0x3e293f97	0.16528164
73	0xbe19e684	-0.15029341
74	0xbe061a3c	-0.13095945
75	0xbdee54b2	-0.11637248
76	0xbdd1e8fa	-0.10249515
77	0xbde44a76	-0.11147015
78	0x3d145780	0.03621626
79	0x3e0c7112	0.13715008
80	0x3e0185f4	0.12648755
81	0x3de82e8b	0.11337002
82	0xbde142ca	-0.10999067
83	0xbe1205ef	-0.14260076
84	0xbd658d58	-0.056043
85	0xbde05079	-0.10952849
86	0xbdf15a3a	-0.117847875
87	0xbe2617ec	-0.16220063
88	0x3e173820	0.14767504
89	0x3e0a5309	0.13508238
90	0xbd3499b1	-0.044091884
91	0xbd448acd	-0.047983933
92	0xbe0f7f49	-0.14013399
93	0x3cd03aec	0.025418721
94	0x3dab2c53	0.083580635
95	0x3d5ae7d3	0.05344374
96	0x3e059e27	0.13048612
97	0x3e21c030	0.1579597
98	0x3d631e90	0.05544907
99	0x3d4ee246	0.05050876
100	0x3da86149	0.08221681
101	0xbbfaf3a8	-0.0076584406
102	0x3dde00a5	0.10839967
103	0x3d59acc4	0.053143278
104	0xbdde9e60	-0.108700514
105	0x3d2c242d	0.042026687
106	0x3c2d920f	0.010593905
107	0xbe304976	-0.17215523
108	0x3e29ffc9	0.1660148
109	0xbe267ad7	-0.16257797
110	0xbd530ba4	-0.051524773
111	0x3df05d4b	0.11736544
112	0xbd624827	-0.05524459
113	0xbe1b9f06	-0.15197381
114	0x3dbebd0f	0.09313404
115	0x3d5a4d14	0.053296164
116	0x3bec33e2	0.0072083334
117	0xbe119fa6	-0.14221057
118	0x3d9d8587	0.07691484
119	0x3e1c0cff	0.15239333
120	0x3dd5f33b	0.10446783
121	0x3d520d6a	0.051282324
122	0x3dcb6117	0.09930628
123	0x3db6c771	0.08924759
124	0x3dea60a1	0.11444212
125	0xbd828e62	-0.063748136
126	0xbde375bf	-0.11106443
127	0x3e34bbc6	0.17649755
128	0x3dca2459	0.09870214
129	0xbe1cf23a	-0.15326777
130	0xbcc56125	-0.024094174
131	0xbdb8ea3c	-0.09029052
132	0x3cf69629	0.030100899
133	0xbe00f87f	-0.12594794
134	0xbccfe031	-0.025375457
135	0xbd599289	-0.053118262
136	0xbd276136	-0.040864192
137	0x3cfc91fa	0.030831326
138	0xbc5234c5	-0.012829964
139	0x3dd0a02c	0.101868
140	0x3e077fc1	0.13232328
141	0x3dda2239	0.10651059
142	0xbcde9aaa	-0.027173359
143	0x3e121b8d	0.14268322
144	0x3dc09029	0.09402496
145	0xbdf0bcc1	-0.11754752
146	0x3b7dadbf	0.0038708297
147	0x3e161a6a	0.14658514
148	0x3dc131c1	0.09433318
149	0xbd9e2560	-0.077219725
150	0xbce869ff	-0.028370855
151	0xbd30eba6	-0.04319348
152	0x3dd038a6	0.10167055
153	0x3c900d41	0.017584445
154	0xbdc05759	-0.0939166
155	0xbd01db09	-0.03170303
156	0x3d8e34f3	0.06943693
157	0xbe21bc92	-0.1579459
158	0x3c27d5c0	0.010243833
159	0xbdf3c55e	-0.11902879
160	0xbd93f210	-0.07223904
161	0x3e14ab31	0.1451843
162	0x3dd0959c	0.10184786
163	0x39fd13f3	0.00048270784
164	0x3d25ec6f	0.040508684
165	0xbb288276	-0.0025712526
166	0x3e01ad15	0.12663682
167	0x3dfe8cf9	0.12429232
168	0x3dbbddd8	0.09173173
169	0xbe234518	-0.15944326
170	0xbe103996	-0.14084467
171	0x3d0c8cf9	0.03431413
172	0x3cb922b7	0.022599561
173	0x3e132e17	0.1437305
174	0x3c6811f6	0.0141644385
175	0xbd812e23	-0.06307628
176	0x3df1b4b4	0.118020445
177	0xbe2e8d38	-0.17046058
178	0xbe0d3ba7	-0.13792287
179	0x3cd54346	0.026033055
180	0xbdb58793	-0.08863749
181	0x3e04b434	0.12959367
182	0x3c840dcd	0.016119862
183	0x3e2ffc23	0.17186026
184	0xbe2d592d	-0.16928549
185	0x3d95e1c7	0.07318454
186	0xbd0ef73a	-0.034903742
187	0xbdf61334	-0.120153815
188	0xbe0ef170	-0.13959289
189	0x3d831377	0.06400197
190	0x3e0de361	0.1385627
191	0xbd80f0cb	-0.062959276
192	0xbd442b41	-0.047892813
193	0xbe19bd63	-0.15013652
194	0xbc9de880	-0.019275904
195	0x3d670b7e	0.056407444
196	0xbde6efe5	-0.11276225
197	0x3e2be288	0.16785634
198	0x3d0ab02f	0.033859428
199	0xbe23016d	-0.15918513
200	0x3c9e5c55	0.019331137
201	0xbe1d302a	-0.15350404
202	0xbce1ec08	-0.027578369
203	0xbe202daa	-0.1564242
204	0x3e005db4	0.12535745
205	0x3e2e9ae7	0.17051278
206	0x3db65bdd	0.0890424
207	0xbd4bf2cc	-0.049792096
208	0x3d7f19aa	0.062280335
209	0xbdfffc26	-0.124992654
210	0xbdcbca8c	-0.09950742
211	0x3da6c57c	0.08143136
212	0xbdda0686	-0.106457755
213	0xbd5b7057	-0.053573932
214	0xbe214d0c	-0.15752047
215	0xbe1818cc	-0.1485321
216	0x3d90ce29	0.07070572
217	0xbe13ded8	-0.14440477
218	0xbc8b57b9	-0.017009603
219	0x3e076c83	0.13224988
220	0xbdac4897	-0.08412283
221	0x3da65697	0.081219845
222	0xbdf49c3d	-0.119438626
223	0xbd83b540	-0.06431055
224	0xbde2c985	-0.11073593
225	0xbdd233b6	-0.10263769
226	0x3dda4331	0.10657347
227	0xbdca9563	-0.098917745
228	0xbd9fa000	-0.077941895
229	0xbe078413	-0.13233976
230	0xbdf118f7	-0.1177234
231	0x3e10d46b	0.14143531
232	0x3d8fb2ee	0.0701655
233	0x3e058ad0	0.13041234
234	0xbe19b31f	-0.15009736
235	0xbd771a86	-0.06032803
236	0xbe19afbf	-0.15008448
237	0x3cdba483	0.026811844
238	0xbdf3f30a	-0.119115904
239	0xbd8ec8c5	-0.069718875
240	0x3d1316ce	0.03591042
241	0xbdfae9d2	-0.12251629
242	0x3d9a5501	0.075357445
243	0x3e0abf7f	0.13549612
244	0x3dc0b2b2	0.094090834
245	0xbcdc31d8	-0.026879236
246	0x3c714227	0.014725245
247	0xbdec07fa	-0.11524959
248	0x3e251a48	0.16123307
249	0x3dce90dc	0.100862235
250	0x3d6f1e69	0.05837861
251	0x3cdfbb08	0.027310863
252	0x3d03ae8b	0.03214888
253	0x3e13d852	0.14437988
254	0xbe2ebc27	-0.17063962
255	0xbe34511b	-0.17609064

lstm.bias_ih_l1 f4 [96]
0	0xbfcd1cbf	-1.6024398
1	0xbf68b8c3	-0.90906924
2	0xbee59a02	-0.4484406
3	0xbfd435c4	-1.6578908
4	0xc011fb30	-2.2809563
5	0xbf951f41	-1.1650163
6	0x3e38d253	0.18048982
7	0xbfb915fc	-1.4459834
8	0xc00d9106	-2.2119765
9	0xbfe02090	-1.7509937
10	0xbef3a7f4	-0.47589076
11	0xc052f5ac	-3.2962446
12	0xbfdbffb4	-1.7187409
13	0xc03fbdfe	-2.9959712
14	0x3f3f6b34	0.74772954
15	0x400a54d4	2.1614275
16	0x3fd185c6	1.636895
17	0xbf1b97eb	-0.60778683
18	0xbf92942b	-1.1451467
19	0x3e16aed2	0.14715126
20	0xbd2f9e5b	-0.04287563
21	0xc031fe32	-2.7811399
22	0x3f2c2fd7	0.672605
23	0x3f94f944	1.163857
24	0xbe7ff8a3	-0.24997191
25	0xbf5bf4c3	-0.8592035
26	0xbfad90a4	-1.3559766
27	0xbfa168eb	-1.2610143
28	0xbf0ba98f	-0.545556
29	0x3f9ef5a1	1.241871
30	0xc0403d6c	-3.003749
31	0xbfb788f2	-1.4338667
32	0x3f8881fe	1.066467
33	0x402fd4ae	2.747356
34	0x40304eb6	2.7548041
35	0x40454c12	3.082768
36	0x40130eee	2.2977862
37	0x3fbb013c	1.4609752
38	0x400c3322	2.190621
39	0x3fa197bd	1.2624432
40	0x3f6b0823	0.9180929
41	0x3f85d34a	1.0455105
42	0x3fc517f5	1.5397936
43	0x3f454f4d	0.7707413
44	0x3ffe14bb	1.9850076
45	0x3f5df2f0	0.8669882
46	0x3e09d1cb	0.13458936
47	0xbef0bdb7	-0.4701974
48	0x3f9fd8ba	1.2488015
49	0x4005a212	2.088017
50	0x402e06fa	2.7191758
51	0x3ff83d06	1.9393623
52	0x3fd07f8b	1.6288923
53	0x3f843f35	1.0331789
54	0x3f1044cb	0.5635497
55	0x3fab689b	1.3391298
56	0x3f18bc7a	0.5966259
57	0x3fa09169	1.2544376
58	0x3fa64fc2	1.299309
59	0x40002e15	2.0028126
60	0x3f7b3dbe	0.98141086
61	0x3fcfa4b7	1.6222142
62	0x3f6a675c	0.91563964
63	0x4025a850	2.588398
64	0xbf3ed1f7	-0.7453913
65	0xbcf4311f	-0.029808579
66	0x3f87f5cd	1.0621887
67	0xbf8c5ce0	-1.0965843
68	0xbf8473b9	-1.0347816
69	0xbeeb1d2a	-0.45920688
70	0xbfb3a3f5	-1.4034411
71	0x3f04beae	0.51853454
72	0xbf146015	-0.5795911
73	0x3e934543	0.2876378
74	0x3f20d458	0.6282401
75	0xbf79c877	-0.9757151
76	0xbfe4da94	-1.7879205
77	0x3f96f12d	1.1792351
78	0xbfc3aab1	-1.5286466
79	0x3fed2238	1.8526068
80	0xbf322695	-0.6959012
81	0x3fc9856b	1.5743841
82	0x3ec60c67	0.38681337
83	0x3f9ce2b0	1.225668
84	0x3f4cc80b	0.7999274
85	0xbf95ebe2	-1.1712611
86	0xbfb10451	-1.3829442
87	0xbf08e4bc	-0.5347402
88	0xc002bc18	-2.0427303
89	0xbfaff1c5	-1.3745657
90	0x3fce2b06	1.610688
91	0x3f549051	0.8303271
92	0xbfc49bf6	-1.5360096
93	0x3fc0cf51	1.5063268
94	0x3f8a27f5	1.0793444
95	0xbeb56f79	-0.3543661

lstm.bias_hh_l1 f4 [96]
0	0xbfb51a82	-1.4148715
1	0xbf7aeb5a	-0.9801537
2	0xbf00660c	-0.5015571
3	0xbfee37bc	-1.8610759
4	0xc00a324d	-2.15932
5	0xbf8a0a7f	-1.0784453
6	0x3e81336d	0.25234547
7	0xbfc65dee	-1.5497415
8	0xc0149dc6	-2.3221297
9	0xbfd6024c	-1.6719451
10	0xbeb5c5f9	-0.35502604
11	0xc0564032	-3.3476682
12	0xbfedb326	-1.8570297
13	0xc03e90b1	-2.9775813
14	0x3f58933b	0.84599656
15	0x4012fb06	2.2965713
16	0x3fce6f6b	1.6127752
17	0xbee307db	-0.4434193
18	0xbfb908b5	-1.4455782
19	0xbe14f650	-0.14547086
20	0xbdccacbf	-0.09993886
21	0xc035a93d	-2.8384545
22	0x3f47ab9d	0.77996236
23	0x3f5ee028	0.87060785
24	0xbe8d8f3d	-0.27648345
25	0xbf0df027	-0.5544457
26	0xbfac6ec9	-1.3471309
27	0xbfcde296	-1.6084774
28	0xbf18fb82	-0.5975877
29	0x3faa8187	1.3320779
30	0xc03963b6	-2.8967109
31	0xbfa5f825	-1.2966353
32	0x3fa1cf59	1.2641402
33	0x40290285	2.6407788
34	0x402b7574	2.6790438
35	0x40378b36	2.8678718
36	0x401f7e66	2.4920897
37	0x3fdb3beb	1.712766
38	0x40172436	2.3615851
39	0x3f99d9aa	1.2019551
40	0x3f39071e	0.72276485
41	0x3f82a411	1.0206319
42	0x3fd28a42	1.6448443
43	0x3f83b88d	1.0290695
44	0x3ffa772c	1.9567618
45	0x3f8aa1b8	1.0830603
46	0x3e4a7ee4	0.19774967
47	0xbf1bbb4a	-0.60832655
48	0x3fa60b79	1.2972251
49	0x4014a9a2	2.3228536
50	0x402e759b	2.725928
51	0x40051b23	2.0797813
52	0x3fd39f96	1.6533077
53	0x3f4c1ff3	0.7973625
54	0x3f016e03	0.5055849
55	0x3fa81d4f	1.3133944
56	0x3f3713b6	0.7151445
57	0x3f7b50ea	0.9817034
58	0x3fac63a1	1.3467904
59	0x3ff474d4	1.9098153
60	0x3f9d43be	1.2286298
61	0x3fc044d4	1.5021005
62	0x3f94e25c	1.1631579
63	0x40305671	2.755276
64	0xbf4041d4	-0.75100446
65	0xbf058c41	-0.52167135
66	0x3eae21ff	0.34010312
67	0xbe0f8b04	-0.14017874
68	0x3c1a6319	0.009423041
69	0x3f05035e	0.5195826
70	0xbf9e6d77	-1.2377156
71	0x3e988332	0.29787594
72	0x3ee91a43	0.4552785
73	0xbd9cf254	-0.07663408
74	0xbe6f32ed	-0.2335927
75	0x3dafc5c2	0.08582641
76	0xbd1206a6	-0.03565087
77	0xbbacaf67	-0.005269933
78	0xbfeb6020	-1.838871
79	0x3ffde481	1.9835359
80	0xbf84565b	-1.0338854
81	0x3f25decd	0.6479309
82	0x3eba1604	0.36344922
83	0x3f001760	0.5003567
84	0x3e1f21e0	0.15540266
85	0x3d137b6f	0.036006387
86	0xbfc2eb94	-1.5228143
87	0xbeec20f5	-0.46118894
88	0xbf8263dc	-1.0186725
89	0xbf206c2c	-0.6266506
90	0x3e856a54	0.26057684
91	0xbd198c37	-0.037487235
92	0xbf967e89	-1.1757365
93	0x4017c8c2	2.3716283
94	0xbddb1e5f	-0.10699152
95	0xbd9025f2	-0.070384875

lstm.weight_ih_l2 f4 [96, 32]
0	0xbd199cb3	-0.037502956
1	0x3ed31639	0.41227892
2	0x3ed8039f	0.42190263
3	0xbf8c59ab	-1.0964864
4	0xbe90ee3a	-0.28306752
5	0xbe0420cc	-0.12903136
6	0x3d3c26db	0.045935493
7	0xbf4eb997	-0.8075194
8	0xbd4eccab	-0.050488155
9	0xbf19ceef	-0.6008138
10	0x3f3674ed	0.71272165
11	0xbf42a5c3	-0.7603418
12	0x3e0481ba	0.12940112
13	0x3d7432e7	0.059618857
14	0xbf77d9be	-0.96816623
15	0x3f2a2cf9	0.6647487
16	0xbf3557ab	-0.70836896
17	0xbee93645	-0.45549217
18	0x3f2796c5	0.6546443
19	0x3ef67e9f	0.4814348
20	0x3f4555d1	0.7708407
21	0x3e09a437	0.13441549
22	0xbea74b73	-0.3267475
23	0xbe6cfbc2	-0.23142913
24	0xbee5ae90	-0.44859743
25	0xbf54074a	-0.8282362
26	0x3ebb6c56	0.3660609
27	0xbde7064d	-0.11280499
28	0xbf8a97ad	-1.0827538
29	0x3f942f2d	1.1576897
30	0xbe09b946	-0.13449582
31	0xbecd578c	-0.40105855
32	0x4027c099	2.6211302
33	0x3d9bf7ed	0.076156475
34	0x3f301c5a	0.6879326
35	0xbee5089f	-0.4473314
36	0xbeb3aac6	-0.35091227
37	0xc00851a8	-2.129984
38	0xbea52863	-0.32257375
39	0xbe8da88c	-0.27667654
40	0xbff25fd0	-1.893549
41	0xbf856cbc	-1.0423808
42	0xbe4349a2	-0.19071057
43	0xc0097c16	-2.1481986
44	0x3ecd7bc9	0.40133503
45	0x3fff8b47	1.9964379
46	0x3f5b5fd2	0.85693085
47	0x3eb4bcb4	0.3530022
48	0xbf35eb54	-0.7106221
49	0x3e22a237	0.15882193
50	0xbe057260	-0.13031912
51	0x3e104499	0.14088668
52	0xbf567ee4	-0.8378737
53	0xbf69b8e6	-0.9129776
54	0x3f478f13	0.7795269
55	0xbec051a4	-0.37562287
56	0xbf9b3e14	-1.212832
57	0xbe135d03	-0.1439095
58	0x3e842d3d	0.25815764
59	0x3f2b14dd	0.6682871
60	0xbe52e20e	-0.20594046
61	0xbf428670	-0.75986385
62	0x3faaff2c	1.3359122
63	0xbd136617	-0.035986032
64	0x404bbfda	3.1835847
65	0xbefa6aa1	-0.48909476
66	0x3e6d509b	0.2317528
67	0xbea10692	-0.31450325
68	0xbdb49232	-0.08816947
69	0xbf7ba207	-0.9829411
70	0x3f1809b8	0.5938983
71	0xbf7374e8	-0.9510026
72	0xc00d8188	-2.211031
73	0xbf3dd28f	-0.7414941
74	0xbf6d7205	-0.92752105
75	0xbf7df6ea	-0.99204886
76	0xbc308deb	-0.010776023
77	0x3f7a6ae3	0.97819346
78	0x3fcd68c6	1.6047599
79	0x3f64d14d	0.8938187
80	0xbf18e7e7	-0.59728855
81	0x3e887328	0.26650357
82	0xbe89e04a	-0.2692893
83	0x3ee788eb	0.45221648
84	0xbf3d3a00	-0.73916626
85	0xbf9b22f8	-1.2120047
86	0x3f981d4e	1.1883943
87	0x3edf9dda	0.4367512
88	0xbf17afe0	-0.5925274
89	0xbd3c2966	-0.045937918
90	0xbf558fd0	-0.83422565
91	0x3f02f7dd	0.5115946
92	0xbf3b480c	-0.7315681
93	0xbfded27d	-1.7407986
94	0x3f459291	0.7717677
95	0x3e8b0cb6	0.27158135
96	0x40999e38	4.800564
97	0xbf2fd67a	-0.6868664
98	0xbf3c84a5	-0.736399
99	0xbeedba46	-0.46431178
100	0xbdbc709e	-0.092011675
101	0x3f17cd26	0.59297407
102	0xbf807f5c	-1.0038867
103	0x3f2a4e3e	0.6652564
104	0xc06c6ee8	-3.6942692
105	0xbf873389	-1.0562602
106	0x3e800bb1	0.2500892
107	0xbed254e2	-0.41080385
108	0x3f44a9e9	0.7682176
109	0x3f1f0ba1	0.6212712
110	0x403cd596	2.9505363
111	0x3e5c252f	0.2149856
112	0xc01b79ba	-2.4293046
113	0xbef81b4f	-0.48458335
114	0xbf4b88c4	-0.7950556
115	0xbf699abc	-0.9125173
116	0xbd1255f8	-0.035726517
117	0xbe70b656	-0.23507056
118	0x400d679c	2.2094488
119	0xbf86c027	-1.052739
120	0x3f1b410b	0.6064612
121	0xbdcc44ad	-0.09974036
122	0xbde79597	-0.11307829
123	0xbfa42b21	-1.2825662
124	0xc0043173	-2.0655181
125	0x3ec5f272	0.38661534
126	0x3ecd49d8	0.400954
127	0x3fb0c6da	1.3810685
128	0x3d3b4f6f	0.04573005
129	0xbf5f12b5	-0.8713792
130	0xbf0348dc	-0.5128305
131	0x3d91e4f7	0.0712375
132	0xbe8cce65	-0.27501217
133	0x3dfb30a0	0.12265134
134	0xbef362d3	-0.47536334
135	0xbf4ed32b	-0.80790967
136	0x3e77d55f	0.24202488
137	0xbf6bcf7f	-0.9211349
138	0x3e9847f0	0.29742384
139	0xbe947007	-0.2899172
140	0xbf0355fa	-0.51303065
141	0x3d83b861	0.06431652
142	0xbf455c62	-0.7709409
143	0x3fa65a5a	1.2996323
144	0xba1ea843	-0.00060522946
145	0xbee7616d	-0.45191517
146	0xbe04f86c	-0.1298539
147	0x3e6b516c	0.22980279
148	0x3f4b4feb	0.7941882
149	0xbe9dd1be	-0.30824083
150	0xbf164dcc	-0.5871246
151	0x3ef3e1e4	0.47633278
152	0xbfb4fbb9	-1.413932
153	0xbf99459f	-1.1974372
154	0x3e9a1376	0.30092973
155	0x3f140edc	0.57835174
156	0xbf782b26	-0.9694084
157	0x3ee65088	0.44983315
158	0x3f57a4e3	0.8423597
159	0x3e23d864	0.16000515
160	0x3eb2fb1e	0.34957212
161	0x3f29f52a	0.66389716
162	0xbeaf24fc	-0.34207904
163	0xbde6897a	-0.1125669
164	0x3e6f9cfb	0.23399727
165	0xbf32348f	-0.6961145
166	0xbd069c1a	-0.032863714
167	0x3e1b8864	0.15188748
168	0x3eee7f3c	0.46581447
169	0x3f9c28c6	1.2199943
170	0xbebf0388	-0.37307382
171	0x3f28e225	0.6597007
172	0x3f189ea2	0.59617054
173	0xbea6143a	-0.32437307
174	0x3f51ecb0	0.8200178
175	0xbf61db87	-0.882256
176	0xbefb6774	-0.49102366
177	0x3f0a263e	0.539646
178	0x3d6efcac	0.058346435
179	0xbee292d5	-0.4425265
180	0x3f4b0c2b	0.7931544
181	0x3f191635	0.5979951
182	0x3f654681	0.89560705
183	0x3f002122	0.50050557
184	0xbe12abc3	-0.14323334
185	0x3f8bb4c1	1.0914537
186	0xbed61c67	-0.41818544
187	0xbf206028	-0.6264672
188	0x3fb6c4f7	1.4278859
189	0xbe39d81a	-0.18148842
190	0xbdd964fa	-0.10614963
191	0x3d6fb1d8	0.058519214
192	0x3f9915ab	1.1959738
193	0xbe8a2bf3	-0.26986656
194	0x3f7b27ba	0.9810749
195	0xbe9d6964	-0.3074447
196	0xbf40c5fe	-0.7530211
197	0xbf80b883	-1.0056309
198	0xbec4c4ac	-0.384313
199	0xbfb0437e	-1.3770597
200	0xbfa9859f	-1.3243903
201	0xbfa4f714	-1.2887902
202	0x3ec3d3b5	0.38247457
203	0xbffeb651	-1.9899389
204	0xbe61100a	-0.21978775
205	0x400190fd	2.0244744
206	0xbf421600	-0.7581482
207	0xbdde0b3c	-0.108419865
208	0xbed5fd84	-0.4179498
209	0x3ed9928b	0.42494616
210	0xbf23ca34	-0.6398041
211	0x3f0e4eb4	0.5558884
212	0xbed70b71	-0.42000917
213	0xbfecf6be	-1.85128
214	0xbc716502	-0.014733555
215	0x3e403a81	0.18772317
216	0xbf03df53	-0.5151264
217	0xbe4ca308	-0.19984066
218	0xbf38bb00	-0.7216034
219	0x3f1579f8	0.58389235
220	0xbf7cc7d5	-0.9874242
221	0xbee6ae8c	-0.45055044
222	0x3fee65fb	1.8624872
223	0x3ec3af7c	0.3821982
224	0x3ccdf9fb	0.025143614
225	0x3f2f6e01	0.6852723
226	0xbe0cd6dc	-0.13753837
227	0xbe827d7c	-0.25486362
228	0x3eba1cd6	0.36350125
229	0xbe1b95fa	-0.1519393
230	0x3ed6ff24	0.41991532
231	0xbeae4b9b	-0.34042057
232	0x3ec21bd9	0.3791187
233	0xbf307365	-0.6892608
234	0xbe8adb30	-0.27120352
235	0x3f0aaf1d	0.5417345
236	0x3efba5ae	0.4914984
237	0xbc674009	-0.014114388
238	0x3f1986c0	0.5997124
239	0xbfa1926f	-1.2622813
240	0x3e9d96c2	0.30779082
241	0xbf5f6701	-0.87266546
242	0x3e230580	0.15920067
243	0xbe89930e	-0.26870006
244	0x3fa42d81	1.2826387
245	0x3ea02756	0.3128001
246	0x3fb49539	1.4108039
247	0x3c8a8299	0.016907977
248	0x3e9e4306	0.3091051
249	0x3f21f5cd	0.6326569
250	0x3fa6a823	1.3020061
251	0xbeabecb3	-0.33579025
252	0x3f87aec8	1.0600214
253	0xbf162047	-0.58643
254	0xbe805cd9	-0.25070837
255	0xbb62e56a	-0.0034621605

lstm.weight_hh_l2 f4 [96, 32]
0	0xbdcd3c1c	-0.100212306
1	0x3d65fd50	0.05614978
2	0x3da4122a	0.08011277
3	0xbdc826a3	-0.09772994
4	0xbd67fa1e	-0.056635015
5	0xbd894f35	-0.06704561
6	0x3e1e8e6d	0.15484019
7	0xbe213515	-0.15742905
8	0x3de5431f	0.11194443
9	0x3e23fdcf	0.16014789
10	0x3d3ed141	0.04658628
11	0x3dddba8e	0.10826598
12	0x3b371fc4	0.0027942518
13	0x3e1d173d	0.15340896
14	0xbddc7b19	-0.107656665
15	0x3e274014	0.16333038
16	0x3d6ca2f1	0.05777258
17	0x3d7aac31	0.06119937
18	0xbda8a39c	-0.08234331
19	0x3dbc26c4	0.091870815
20	0x3e11b029	0.14227356
21	0xbdbac42c	-0.09119448
22	0x3dceab71	0.100912936
23	0x3d92eb6e	0.07173811
24	0x3dc9726c	0.09836277
25	0xbda2de0b	-0.079525076
26	0xbba90c86	-0.0051589636
27	0xbda66de4	-0.08126429
28	0xbd8a232f	-0.06744992
29	0xbd9ee731	-0.0775894
30	0x3e044b01	0.12919237
31	0xbd451779	-0.04811809
32	0xbc0a5268	-0.008442499
33	0x3e23f07e	0.16009709
34	0xbe25d8ce	-0.16195986
35	0x3d97132c	0.073767036
36	0xbcd58c48	-0.026067868
37	0x3da0c159	0.07849378
38	0x3e06a4e4	0.13148838
39	0x3e1edae6	0.1551319
40	0xbcc938e8	-0.024563268
41	0x3d6994a9	0.05702654
42	0xbe31e906	-0.17374048
43	0xbda89553	-0.08231606
44	0xbd6e3100	-0.0581522
45	0x3e2f2f5e	0.17107913
46	0x3e094095	0.13403542
47	0xbd08d869	-0.03340951
48	0xbd79e8e1	-0.061013106
49	0xbda245bd	-0.07923458
50	0x3e25e2a9	0.16199745
51	0xbb446e9b	-0.0029973153
52	0x3df665a9	0.12031109
53	0x3dfd84db	0.12378856
54	0x3db4e86f	0.08833396
55	0x3d93b0ef	0.07211482
56	0x3e2a2f31	0.16619565
57	0x3dbb3e75	0.09142772
58	0xbd2ff5a4	-0.04295887
59	0xbdd583f3	-0.10425558
60	0x3e0999e9	0.13437618
61	0x3d28aa9d	0.041178335
62	0x3d8b16ce	0.06791459
63	0xbdeb747d	-0.11496828
64	0x3c8f8f41	0.017524363
65	0x3dfbd555	0.12296549
66	0x3e249926	0.16074046
67	0xbdbeea80	-0.09322071
68	0x3d852059	0.065003105
69	0x3dedb60d	0.11606989
70	0x3deacf5b	0.11465331
71	0x3dee8426	0.11646299
72	0x3cf6864c	0.030093335
73	0xbdfdfea2	-0.12402083
74	0x3d202963	0.03910197
75	0xbcadb92c	-0.02120646
76	0xb9815b39	-0.00024672764
77	0xbcdc653e	-0.026903745
78	0x3e1901d2	0.149421
79	0x3da010d6	0.07815711
80	0x3dcc1054	0.09964052
81	0x3bccd3db	0.006250841
82	0x3dd66c91	0.10469926
83	0xbd54729c	-0.051867113
84	0xbe32a9fc	-0.17447656
85	0x3d79dae9	0.060999785
86	0x3da7ae46	0.08187537
87	0x3d843755	0.06455866
88	0xbdd56bfc	-0.10420987
89	0x3e0efe4c	0.13964194
90	0x3ce77eed	0.028258765
91	0x3df87fef	0.121337764
92	0x3cac5272	0.021035407
93	0x3d85a4aa	0.06525548
94	0xbd2acee8	-0.041701227
95	0xbcc9e976	-0.024647456
96	0xbbae0c36	-0.0053115143
97	0xbe07e379	-0.13270368
98	0x3ddd8b3e	0.10817574
99	0xbd07c7a0	-0.03314936
100	0x3d593aa2	0.053034432
101	0xbd884cf2	-0.06655301
102	0xbd6a5493	-0.057209563
103	0x3e270fa8	0.16314566
104	0xbe086c68	-0.13322604
105	0xbc8752b5	-0.01651893
106	0xbdfc26fb	-0.123121224
107	0xbe32a473	-0.17445545
108	0x3dc03e52	0.09386887
109	0x3d49dead	0.049284626
110	0xbe229603	-0.15877537
111	0xbd060dcb	-0.032727998
112	0x3d948adb	0.07253047
113	0x3d934a0a	0.07191856
114	0xbdbb813f	-0.09155511
115	0x3c41f498	0.011838101
116	0xbbbb2e27	-0.005712289
117	0x3e002dea	0.12517515
118	0x3dd29832	0.10282935
119	0xbce77058	-0.028251812
120	0xbd9bbb0e	-0.07604037
121	0xbe33207d	-0.17492862
122	0x3cf2830c	0.029603504
123	0x3c385bd7	0.011252365
124	0xbe129150	-0.14313245
125	0x3db7d203	0.089756034
126	0x3dcf9f7b	0.1013784
127	0x3dd14a44	0.10219243
128	0x3e2e7657	0.1703733
129	0xbe02c4b3	-0.12770347
130	0x3e0b9e82	0.13634685
131	0xbda19ec6	-0.07891612
132	0xbce1c6c6	-0.027560603
133	0xbd50c968	-0.050973326
134	0xbe3018b8	-0.1719693
135	0xbd1ae100	-0.037812233
136	0x3d9c6f09	0.07638366
137	0x3e1b20ee	0.1514928
138	0x3d965800	0.073410034
139	0xbe0291f3	-0.12750988
140	0x3d8b88c5	0.06813196
141	0x3e282739	0.16421212
142	0xbe0bc6ef	-0.13650106
143	0x3e0ab438	0.1354531
144	0xbd50088b	-0.050789397
145	0xbdde8e30	-0.10866964
146	0xbddfe843	-0.10932972
147	0x3d6889a9	0.056771908
148	0xbddfec95	-0.10933796
149	0x3d11336f	0.03544944
150	0x3d949644	0.072552234
151	0x3dd8beca	0.10583265
152	0x3ca7d02f	0.020485012
153	0x3d7e4ef2	0.062087007
154	0xbd79038e	-0.060794406
155	0xbc72ba11	-0.0148148695
156	0xbe3459ae	-0.17612335
157	0xbe246d1c	-0.16057247
158	0x3cddd775	0.027080277
159	0x3c576884	0.013147477
160	0x3e1d0635	0.15334399
161	0xbd8d6290	-0.06903565
162	0x3d944781	0.07240201
163	0x3de40823	0.111343645
164	0x3c81600b	0.015792867
165	0x3df01b55	0.11723963
166	0x3e23bae6	0.15989265
167	0x3c936562	0.017992679
168	0x3dc416c5	0.095746554
169	0x3e327980	0.17429161
170	0xbe1bbe26	-0.15209255
171	0xbd64291e	-0.055703275
172	0xbe1729d1	-0.14762045
173	0xbde37b0a	-0.11107452
174	0x3dc6858e	0.09693442
175	0xbdd6d0a8	-0.10489017
176	0xbd96a7f8	-0.07356256
177	0x3d8613e4	0.065467626
178	0xbdf7cee1	-0.12100006
179	0xbe02cb75	-0.12772925
180	0x3e0a52fb	0.13508217
181	0xbd8d46b9	-0.06898255
182	0xbca4755c	-0.020075493
183	0x3d917991	0.07103265
184	0x3d8f6bec	0.07003006
185	0x3e0106ee	0.126003
186	0x3b97cab3	0.004632318
187	0x3de2d076	0.11074917
188	0xbd2fe314	-0.042941168
189	0x3cb4f669	0.022090154
190	0xbd67596e	-0.05648177
191	0x3c8e6c53	0.017385637
192	0x3d3b625e	0.045748107
193	0x3de5d430	0.11222112
194	0x3e1ff8ee	0.15622303
195	0x3cb46b8d	0.02202394
196	0xbd284c75	-0.04108854
197	0xbe0e0426	-0.1386877
198	0xbdff252a	-0.1245826
199	0x3da10c64	0.078636914
200	0x3da8d3d6	0.082435295
201	0xbe2bfe05	-0.1679612
202	0x3e2bb674	0.16768819
203	0x3e0ba463	0.13636927
204	0xbca0d88d	-0.01963451
205	0x3e321f77	0.17394815
206	0x3ddbe12e	0.10736309
207	0xbd4e5a28	-0.05037895
208	0x3d215ee7	0.039397147
209	0xbe103486	-0.14082536
210	0xbddc832c	-0.107672065
211	0x3db11fcc	0.08648643
212	0xbe2d8418	-0.16944921
213	0x3e174b34	0.14774781
214	0xbdf7dba1	-0.12102438
215	0x3e27f8ed	0.16403551
216	0x3d9576f0	0.07298076
217	0x3ce2fc71	0.027708264
218	0xbc9d4b7a	-0.01920103
219	0xbd570788	-0.052497417
220	0x3e16c113	0.1472209
221	0xbda3696b	-0.07979091
222	0x3e32be21	0.17455341
223	0xbdcb5d28	-0.099298775
224	0x3e243abc	0.1603803
225	0xbd1b5d14	-0.037930563
226	0x3e2f431e	0.17115447
227	0x3e2b5bfb	0.16734307
228	0x3e065abd	0.13120551
229	0x3e1f504b	0.15557973
230	0x3dc6b96d	0.09703336
231	0xbc98e1c9	-0.01866235
232	0xbe27ccc1	-0.16386701
233	0x3e19a3e0	0.1500392
234	0xbc94f2f4	-0.018182255
235	0x3df4da6b	0.119557224
236	0x3db162ce	0.086614236
237	0x3cbc999b	0.023022464
238	0x3e266224	0.16248375
239	0x3d91ff96	0.07128827
240	0xbde7d0dd	-0.113191344
241	0xbd3817f6	-0.044944726
242	0x3d9d5e78	0.07684034
243	0x3cbea82d	0.023273552
244	0x3cf5aa35	0.029988388
245	0x3c39c981	0.011339546
246	0x3de2594a	0.11052187
247	0x3e00e1dd	0.1258616
248	0xbddffe9d	-0.109372355
249	0x3d92a73d	0.071608044
250	0xbd93d252	-0.0721785
251	0x3d44e774	0.048072293
252	0xbe0373f9	-0.12837209
253	0x3de606bc	0.11231753
254	0xbdf5ed7f	-0.120081894
255	0xbdc8f03a	-0.098114446
