gru_model_1.98loss.pt (torch, 80025 bytes, 15 tensors)

lstm.weight_ih_l0 f4 [96, 24]
0	0x3fb3b00f	1.4038104
1	0xc03b7b76	-2.9294105
2	0x409c8afc	4.891966
3	0x404ed636	3.2318244
4	0x3df2802d	0.11840854
5	0xbf83d623	-1.0299724
6	0xc07139af	-3.7691457
7	0x4022f5d7	2.5462549
8	0x4062378c	3.5346403
9	0xbf848efb	-1.0356134
10	0xc1150b3f	-9.315246
11	0x3fe9e9da	1.8274491
12	0xbfe7b9e2	-1.8103602
13	0xc0898024	-4.296892
14	0x3f76aab3	0.96354216
15	0x3f1d6ecf	0.61497205
16	0x405f23c2	3.4865575
17	0x3c39aa11	0.011332051
18	0x3f30406e	0.6884831
19	0xc15312a2	-13.192049
20	0x407da2de	3.9630656
21	0x3f3fe4f4	0.7495873
22	0xc09fa119	-4.9884152
23	0xbf75d4f6	-0.9602808
24	0xc0082eb2	-2.12785
25	0xc087e978	-4.2472496
26	0x40b94361	5.789475
27	0xc0782f22	-3.8778768
28	0x3fbcbaa7	1.4744462
29	0x40f17c68	7.5464363
30	0xc001d007	-2.028322
31	0x4005865a	2.0863252
32	0x4083ea54	4.1223545
33	0x403681f8	2.8516827
34	0xbfce4b32	-1.6116698
35	0x40497d59	3.1482756
36	0x40ad4386	5.4144926
37	0xc015d76a	-2.3412728
38	0x40c01f36	6.00381
39	0x40c0618b	6.011907
40	0xbd1c51f6	-0.0381641
41	0x3f450f64	0.7697661
42	0xc0384cdf	-2.8796918
43	0xbf3e7562	-0.7439786
44	0xbecaf20e	-0.39637798
45	0xbfe1e9c8	-1.7649469
46	0xc096cd45	-4.7125573
47	0xc081f389	-4.0609784
48	0xc02cb58e	-2.6985812
49	0xbfa32582	-1.2745821
50	0x4094863e	4.641387
51	0xbf13e52c	-0.57771564
52	0x40dd3f25	6.913958
53	0x402cefbf	2.702133
54	0x408a0961	4.313645
55	0xbf91e62e	-1.139837
56	0x3ea3b659	0.31975058
57	0x3fc28e18	1.5199614
58	0xbfa92a92	-1.3216116
59	0xc0414de4	-3.020379
60	0x3f641110	0.89088535
61	0x3ff4fb0a	1.9139111
62	0xbfa5f7cb	-1.2966245
63	0x40c298cf	6.0811534
64	0x4021e7ec	2.5297804
65	0xc095b8a2	-4.678788
66	0x401efe58	2.484274
67	0xbf0d924e	-0.5530137
68	0xbe895d7a	-0.2682913
69	0xbff1b939	-1.888465
70	0x40146759	2.3188078
71	0x40c528b1	6.161217
72	0xc0404bfe	-3.0046382
73	0x40856f0b	4.169805
74	0x3ff69ae9	1.9266025
75	0x40989eb3	4.7693725
76	0x413ba69d	11.728177
77	0x4038909e	2.8838267
78	0x4000eb05	2.0143445
79	0xbfa45a20	-1.2840004
80	0x3fe28c95	1.7699152
81	0x405894f1	3.3840907
82	0xbfb55562	-1.4166682
83	0xc002ca24	-2.0435877
84	0xc0965fa0	-4.699173
85	0xbfa079a7	-1.2537125
86	0xc005a3da	-2.0881257
87	0x40d8c5bb	6.774137
88	0x406e9e10	3.7283974
89	0xc001fc69	-2.031031
90	0xbfa57ffb	-1.2929682
91	0xc05acdaf	-3.418804
92	0x3f1cb559	0.61214215
93	0x40f84edc	7.7596264
94	0xc0aec035	-5.460963
95	0x3f020d53	0.5080158
96	0xbfc31b21	-1.5242654
97	0xc0da80d5	-6.8282266
98	0xc00ffd0d	-2.24982
99	0x3f68e271	0.9097052
100	0x418d1511	17.635286
101	0xc0aa2a24	-5.317644
102	0xbfcf20fe	-1.6181943
103	0xbeac5064	-0.33655083
104	0xc041a521	-3.0257037
105	0x40a82d0f	5.2555003
106	0xc03244a5	-2.7854397
107	0xbfd6e24d	-1.6787812
108	0x3fd1ca9f	1.638996
109	0x3c774350	0.015091732
110	0x40c8b627	6.2722354
111	0x3f5379eb	0.8260791
112	0xbe1c82a4	-0.1528421
113	0xc02ecc24	-2.7312098
114	0xc098025d	-4.7502885
115	0xc072c758	-3.793417
116	0xbebe667e	-0.3718757
117	0xc0392259	-2.8927214
118	0xc0a7e7ea	-5.24706
119	0xbf3846a4	-0.7198279
120	0x40c3fb8f	6.124458
121	0xc06d5711	-3.708439
122	0x40d1564c	6.5417843
123	0xc0379930	-2.8687248
124	0xbfc243e2	-1.5176966
125	0x403e1d15	2.970525
126	0xbf1c0351	-0.6094256
127	0x40a8c9d4	5.274637
128	0xbe684a3f	-0.22684573
129	0xbf060f0e	-0.5236672
130	0x40098ddd	2.1492836
131	0xc0dcd08f	-6.900459
132	0x3efcfaff	0.49410245
133	0xbf70d0ea	-0.9406878
134	0x40a3c14d	5.1173463
135	0x40141fad	2.3144333
136	0x408c34ac	4.3814297
137	0x3e013aea	0.1262013
138	0x3fdbe897	1.7180356
139	0xc0df47c5	-6.977511
140	0x4083c09d	4.1172624
141	0xbfa8c7c7	-1.3185967
142	0x41011f81	8.070191
143	0x3e0484ad	0.12941237
144	0x3fc484e8	1.535306
145	0xbfdbca13	-1.7171043
146	0xbfaee036	-1.3662174
147	0xbf80c733	-1.0060791
148	0xbf26e0a5	-0.6518653
149	0x40b2d6a3	5.588701
150	0x3f944799	1.158435
151	0xc093acef	-4.61486
152	0xbe32c8eb	-0.17459457
153	0x3f14125c	0.57840514
154	0xc1412afc	-12.072994
155	0xc07c1c27	-3.9392183
156	0xbe8fe7f0	-0.28106642
157	0xc03b69a8	-2.9283237
158	0xc03d74bc	-2.96025
159	0xc06a57eb	-3.661616
160	0x4103358d	8.200574
161	0xbff0ba31	-1.8806821
162	0x3ec352b1	0.38149026
163	0xbfba8fe5	-1.4575163
164	0xbde654c0	-0.112466335
165	0xbfe45448	-1.7838221
166	0xbe5d3541	-0.21602346
167	0x3f97c581	1.1857148
168	0x3d6f3337	0.05839845
169	0xc00bc24a	-2.1837335
170	0x40bf3bf4	5.9760685
171	0x4093a24f	4.613563
172	0xc0451090	-3.079136
173	0x3e99ccb1	0.3003898
174	0x408cc63c	4.3991985
175	0x404c6793	3.1938217
176	0xc03f6e92	-2.9911237
177	0x4067112c	3.610423
178	0x3f7c05dd	0.98446447
179	0xc013ea7c	-2.3111868
180	0x402e3b05	2.7223523
181	0xc0889ef5	-4.269404
182	0x40832234	4.097925
183	0x40b813c4	5.752413
184	0xc021b416	-2.5266166
185	0x3f8ab0e8	1.0835238
186	0x4096274d	4.6922975
187	0x3fba7dc0	1.4569626
188	0xbff8aa17	-1.9426907
189	0x409ef07e	4.966857
190	0x402c7670	2.6947289
191	0x3fdf8bed	1.7464577
192	0xc083c01d	-4.1172013
193	0x3faa0880	1.3283844
194	0x40b88f47	5.76749
195	0x409086ef	4.5164714
196	0xbf97b64b	-1.1852506
197	0xbf4a8773	-0.7911293
198	0x3e3924a0	0.18080378
199	0x3fabdb6a	1.3426335
200	0x4137e924	11.494419
201	0xbf8a6910	-1.0813313
202	0xbf55c269	-0.8349977
203	0x405fae4d	3.4950135
204	0x3fce8bde	1.6136434
205	0x3f9e7506	1.2379463
206	0x4004923a	2.071425
207	0x404420c1	3.0644991
208	0xbf874af2	-1.0569746
209	0xbfaa8357	-1.3321332
210	0x4100b34b	8.043773
211	0xc07d110c	-3.9541655
212	0xc0a3a242	-5.113557
213	0xc024122a	-2.5636086
214	0x3fa313b5	1.2740389
215	0x3f075eaf	0.5287885
216	0xc0152f22	-2.3310018
217	0x3f1df765	0.6170562
218	0xc0a0bfc9	-5.0234113
219	0x4096f5ba	4.717496
220	0x3fa86dcd	1.3158509
221	0x3e6f1b5a	0.23350278
222	0x3e5b5985	0.21420868
223	0x40eb6c58	7.3569756
224	0xbee5de4d	-0.44896165
225	0xc037f753	-2.8744705
226	0xc0905f63	-4.511644
227	0x40a24312	5.0706873
228	0xc05b7904	-3.4292612
229	0x4007271e	2.1117625
230	0x410d11f4	8.816883
231	0x40292fca	2.6435418
232	0xbe0d2f53	-0.13787584
233	0xc097af50	-4.7401505
234	0xc014d3d0	-2.325428
235	0x40b9070a	5.7821093
236	0xbf42733b	-0.7595708
237	0xc07191a7	-3.774515
238	0xc0a0f01c	-5.02931
239	0x40dab0de	6.83409
240	0xbf970d05	-1.1800848
241	0xc0d8b2aa	-6.7718096
242	0xbf354e28	-0.7082238
243	0x3f668784	0.9005053
244	0x403e43ad	2.9728806
245	0xc110da2c	-9.053265
246	0xc03c52ae	-2.9425464
247	0xbf669637	-0.9007296
248	0xc12001cc	-10.000439
249	0x40dc4b7c	6.8842144
250	0x3f2f6085	0.6850665
251	0xc063af63	-3.5575798
252	0xbed3d858	-0.41375995
253	0x3fb53615	1.415713
254	0x406fc71d	3.746528
255	0xc0d9e686	-6.80939

lstm.weight_hh_l0 f4 [96, 32]
0	0x3dc697a7	0.09696894
1	0xbba9be02	-0.0051801214
2	0xbd27176e	-0.04079383
3	0xbe1ed6e0	-0.15511656
4	0xbe271bab	-0.16319148
5	0xbdbc5da2	-0.091975465
6	0xbe092e93	-0.13396673
7	0x3dd58e2b	0.10427507
8	0xbddb5d62	-0.10711171
9	0xbe0746c4	-0.13210589
10	0xbe22a860	-0.15884542
11	0xbd9932dc	-0.07480404
12	0xbdf7a263	-0.1209152
13	0x3e1ea7c7	0.1549369
14	0xbbf10733	-0.0073555945
15	0x3d68c80b	0.0568314
16	0x3d736574	0.059422925
17	0x3dde72fa	0.10861774
18	0xbdd764a6	-0.10517244
19	0xbdb802b4	-0.089848906
20	0x3db2b5aa	0.08726056
21	0xbe224c10	-0.15849328
22	0x3d5d734a	0.054065026
23	0x3dc70e2b	0.09719499
24	0x3d131833	0.03591175
25	0x3da69429	0.08133728
26	0xbddff91d	-0.109361865
27	0xbe014b93	-0.12626486
28	0xbe2c21e5	-0.16809805
29	0xbd78f03e	-0.060775988
30	0xbc4c847c	-0.012482759
31	0xbdab088a	-0.08351238
32	0xbccf4da5	-0.025305578
33	0x3d975522	0.07389285
34	0xbe2c22b5	-0.16810115
35	0xbb8df566	-0.0043322323
36	0x3e097e84	0.13427168
37	0xbcb22211	-0.02174476
38	0xbe0b1943	-0.13583855
39	0xbd23cdbb	-0.03999112
40	0x3e2587f4	0.16165143
41	0x3d056964	0.03257121
42	0xbd582afe	-0.052775376
43	0xbc392a24	-0.011301551
44	0x3df5894e	0.119890794
45	0x3c1ae073	0.009452927
46	0xbdb06f4c	-0.08614978
47	0xbd821430	-0.06351507
48	0x3d0c518e	0.034257464
49	0xbdc09571	-0.09403504
50	0x3dc56845	0.096390285
51	0x3d00340d	0.03129964
52	0x3d6d4227	0.057924416
53	0xbcbc623a	-0.022996057
54	0x3b13a1cc	0.0022526858
55	0xbd8cc6ec	-0.06873879
56	0xbe2e7e8b	-0.1704046
57	0x3da7b8f6	0.081895754
58	0xbd60ad64	-0.05485286
59	0x3e19c0f6	0.15015015
60	0x3decf80f	0.11570751
61	0xbc7b8bf3	-0.015353191
62	0x3bc913f5	0.0061364123
63	0xbe0a4623	-0.13503318
64	0x3e30ec92	0.17277744
65	0xbdbefbe2	-0.093253866
66	0x3e1c94c7	0.15291129
67	0xbdd5ae22	-0.10433604
68	0x3d6a93c0	0.05726981
69	0xbb72cfa2	-0.0037050028
70	0xbe19703c	-0.1498422
71	0x3e11d278	0.14240444
72	0x3c51564c	0.012776922
73	0xbd2fe336	-0.042941295
74	0x3d0a2000	0.033721924
75	0xbe0c0311	-0.13673045
76	0x3e1d808c	0.15381068
77	0xbd6101c2	-0.054933317
78	0xbe08a458	-0.13343942
79	0xbe1a68a1	-0.15078975
80	0xbe24f930	-0.16110682
81	0x3df74411	0.120735295
82	0x3d1c9b1f	0.038233873
83	0x3d6b71ea	0.057481684
84	0x3e23470e	0.15945074
85	0x3d4c7783	0.049918663
86	0xbe264e39	-0.16240777
87	0xbd5d9db2	-0.054105468
88	0xbde096e0	-0.10966277
89	0xbd0ffe07	-0.03515437
90	0xbcb1bb23	-0.021695679
91	0x3d999a62	0.07500149
92	0x3e132fa6	0.14373645
93	0xbe072f53	-0.13201647
94	0x3d5df8ab	0.054192226
95	0x3de6d40a	0.11270912
96	0xbdf3d913	-0.11906638
97	0xbd271dcb	-0.040799897
98	0x3c8d0aa4	0.017216988
99	0x3e0f3a83	0.13987164
100	0x3da3a83e	0.07991074
101	0xbcefc642	-0.029269341
102	0x3d2121fb	0.039339047
103	0x3d9891d9	0.07449693
104	0x3da7cb80	0.081931114
105	0x3d9e624f	0.077335946
106	0x3d31931f	0.043353196
107	0x3df759e3	0.120776914
108	0xbdef1754	-0.11674371
109	0xbda80932	-0.08204879
110	0xbe2b9731	-0.16756894
111	0xbe0065c2	-0.12538818
112	0xbdb5d1e9	-0.08877928
113	0xbe0d31c3	-0.13788514
114	0xbd95b366	-0.07309608
115	0x3e26ece6	0.16301307
116	0x3d8d8558	0.06910199
117	0xbce19d5d	-0.027540857
118	0xbc626821	-0.013818772
119	0x3db03ac0	0.08604956
120	0x3df86e4c	0.121304125
121	0xbdcf1103	-0.101106666
122	0x3e30f960	0.17282629
123	0x3db2a03b	0.08721968
124	0xbd2609fa	-0.04053686
125	0x3cafca22	0.02145869
126	0xbdba6528	-0.09101325
127	0x3dac56b3	0.08414974
128	0xbbf4cf67	-0.0074710133
129	0x3e1fb213	0.15595274
130	0x3dc6e150	0.09710944
131	0x3c325beb	0.010886173
132	0x3e255f8a	0.16149727
133	0x3e2e12d4	0.1699937
134	0xbdfbe9c3	-0.12300446
135	0x3d223555	0.039601643
136	0xbe1df017	-0.15423618
137	0x3d8099e0	0.06279349
138	0xbe166db7	-0.1469029
139	0x3cec3f98	0.028838918
140	0xbc788331	-0.015167997
141	0x3e0fc335	0.1403931
142	0xbe1aee8b	-0.1513006
143	0xbd96e1be	-0.07367276
144	0x3d48d2e8	0.04902926
145	0x3da8f021	0.08248926
146	0x3debbc34	0.11510506
147	0x3d5d0eed	0.053969312
148	0xbd90dbc3	-0.07073166
149	0x3e01a02b	0.12658755
150	0xbe25a9da	-0.16178074
151	0xbdea27e5	-0.114333905
152	0xbdd103c9	-0.102058
153	0x3df97640	0.121807575
154	0xbdf969e5	-0.12178401
155	0xbdda6bf6	-0.10665123
156	0xbdd2f520	-0.1030066
157	0xbd2a426a	-0.041567244
158	0xbe121a5e	-0.14267871
159	0xbdbb0945	-0.091326274
160	0x3c0c37ec	0.008558255
161	0xbcfcdb35	-0.030866245
162	0x3e1ab95f	0.15109776
163	0x3d8c39f2	0.0684699
164	0x3e32fa3a	0.17478266
165	0xbe205960	-0.15659094
166	0x3e20fee5	0.15722235
167	0x3c8ea8c8	0.017414466
168	0xbdde9384	-0.1086798
169	0x3c96476d	0.018344605
170	0x3dde48c2	0.10853721
171	0x3e231d8d	0.15929241
172	0xbe05df99	-0.13073577
173	0x3de7cb0b	0.11318024
174	0x3d92e1a9	0.071719475
175	0x3dd74eb8	0.10513061
176	0x3bce0855	0.0062876143
177	0xbe2ec7ae	-0.1706836
178	0xbe0f533b	-0.13996594
179	0x3d9002f5	0.07031814
180	0xbba04749	-0.0048913104
181	0xbe24842d	-0.16066046
182	0x3d85649b	0.065133296
183	0xbdd1d6e4	-0.10246065
184	0xbc2536cc	-0.010083865
185	0xbd2e2227	-0.04251304
186	0xbdd9929d	-0.106236674
187	0xbdab53de	-0.08365606
188	0x3d8b315a	0.067965224
189	0x3e05a07e	0.13049504
190	0x3e30d60c	0.17269152
191	0x3e1aa6e7	0.1510273
192	0xbdf91f32	-0.12164153
193	0xbc323d12	-0.010878818
194	0xbdbefde4	-0.093257695
195	0x3def300e	0.116790876
196	0x3dfa419e	0.12219547
197	0x3d1d3298	0.038378328
198	0xbe1a5ffe	-0.1507568
199	0x3deaf815	0.11473099
200	0xbda20816	-0.079116985
201	0x3dfd258a	0.12360676
202	0x3da33aeb	0.07970222
203	0x3dae6949	0.08516175
204	0x3d836402	0.06415559
205	0xbe11d478	-0.14241207
206	0xbe340080	-0.17578316
207	0x3d28668e	0.04111343
208	0xbe1f16eb	-0.15536086
209	0xbc3cb0ac	-0.011516731
210	0xbdd747ae	-0.10511719
211	0x3df61008	0.120147765
212	0x3e0d6f30	0.13811946
213	0xbdeb0bac	-0.114768356
214	0xbe16abfd	-0.14714046
215	0x3dc9a85d	0.09846566
216	0x3df961b3	0.12176838
217	0x3c9cbd70	0.0191333
218	0xbd15f1ef	-0.03660768
219	0xbd381686	-0.044943355
220	0xbdac3906	-0.08409314
221	0x3e226ebd	0.15862556
222	0x3e2c1515	0.16804917
223	0x3ddce6f4	0.10786238
224	0xbdc182df	-0.0944879
225	0x3c233039	0.009960228
226	0xbe1ccb12	-0.1531184
227	0x3e047214	0.12934142
228	0xbdecff16	-0.11572091
229	0x3c3a6f96	0.011379143
230	0xbe0b1943	-0.13583855
231	0xbd927ad0	-0.07152331
232	0xbd1ebcf1	-0.038754407
233	0xbe067bd0	-0.13133168
234	0xbe2f0ba2	-0.17094281
235	0x3ca7e631	0.020495506
236	0x3d43c3f9	0.047794316
237	0x3dad7b1c	0.08470747
238	0xbe26e79d	-0.16299291
239	0xbdbbf892	-0.091782704
240	0x3c806a30	0.015675634
241	0x3d2dcc27	0.042431023
242	0xbe2c1ddc	-0.16808265
243	0x3d6deb81	0.058085922
244	0x3dccb1d1	0.09994853
245	0xbd653c13	-0.055965494
246	0x3e0d071d	0.13772245
247	0x3da7b68d	0.08189116
248	0x3c6dd119	0.014515185
249	0xbd3fa536	-0.046788417
250	0xbd6fb37a	-0.05852077
251	0x3be19569	0.006884266
252	0x3d951f0c	0.07281312
253	0xbe19b5bb	-0.15010731
254	0xbd01c687	-0.03168347
255	0x3d01364d	0.031545926

lstm.bias_ih_l0 f4 [96]
0	0xc0186297	-2.3810174
1	0xbf739c9e	-0.95160854
2	0xc0383b0f	-2.8786047
3	0xbf5f488d	-0.8722008
4	0x3edded74	0.43345225
5	0xc0013eae	-2.0194507
6	0x3e38b3e8	0.18037379
7	0x3faa780a	1.3317883
8	0xbf9a9cf6	-1.2079151
9	0x4017ef7e	2.3739924
10	0xc011e369	-2.279505
11	0x3f24df34	0.6440308
12	0xbee5d3bb	-0.448881
13	0xc02e2e7a	-2.7215867
14	0xc01fed36	-2.4988532
15	0xc0c5ed22	-6.185197
16	0x3e83be73	0.2573124
17	0xbf4d6a99	-0.8024078
18	0xbfe43d4a	-1.7831204
19	0x3f1663be	0.58745944
20	0x3ecbec7b	0.39828858
21	0xbf9b3753	-1.2126259
22	0xbfc00a44	-1.5003133
23	0x3f5d2640	0.8638649
24	0x3ff1ef7e	1.8901212
25	0xbf9a8430	-1.207159
26	0x3d819c08	0.06328589
27	0xc090be08	-4.523197
28	0xc01dd53e	-2.4661403
29	0xbec88169	-0.39161232
30	0xbec029fb	-0.3753203
31	0xbd251fb7	-0.04031345
32	0x3fbe8737	1.4885014
33	0x40022780	2.033661
34	0x3fd8040a	1.6876233
35	0x3fe74302	1.8067324
36	0x3f55ea69	0.83560807
37	0x3fad80de	1.3554952
38	0x400a37d2	2.159657
39	0x3ec67202	0.38758856
40	0x3f41a43b	0.7564122
41	0xbf83ffa2	-1.0312388
42	0x3eebba85	0.4604074
43	0x3f406c1e	0.75164974
44	0x3fedfcac	1.8592734
45	0x3f74998a	0.9554678
46	0x3fe70b7d	1.8050381
47	0x3fe0ca38	1.7561712
48	0x3fa747d7	1.3068799
49	0x3fb0ea05	1.3821417
50	0x3f69f780	0.9139328
51	0x3fb4cf30	1.4125729
52	0xbfffb7a0	-1.9977913
53	0x3fb76a10	1.4329243
54	0x3fd4679e	1.6594121
55	0x401fb3e6	2.4953551
56	0xbf728194	-0.9472897
57	0x3f6f3a13	0.9344799
58	0x3f8c3026	1.0952194
59	0x401c3d8a	2.441256
60	0x3d354980	0.04425955
61	0x3fe5ac13	1.7943138
62	0x3fb49721	1.4108621
63	0x40087fe2	2.1328053
64	0x3e618b39	0.22025765
65	0x3ebb0212	0.36525017
66	0xbf83988c	-1.0280929
67	0x3ef16bba	0.471525
68	0x3f8fe4a8	1.1241655
69	0xbe8736e8	-0.26409078
70	0x3f93f813	1.1560081
71	0x400c11ff	2.1885984
72	0xbf1b790d	-0.60731584
73	0x407a6f94	3.9130602
74	0xbfbaee08	-1.4603891
75	0xbfe752b7	-1.8072118
76	0xbd7bddb8	-0.061490744
77	0x3f732e41	0.9499245
78	0xbf7f81a3	-0.99807185
79	0xbf094343	-0.5361826
80	0xbfd31355	-1.6490275
81	0x3d1b4e2d	0.03791635
82	0xbf74c917	-0.9561934
83	0x3faeb386	1.3648536
84	0xc017cf62	-2.3720326
85	0x3f181ca1	0.59418684
86	0xbf1a9901	-0.60389715
87	0x3fe9e4a8	1.8272905
88	0x40417933	3.0230224
89	0xbdd912b2	-0.10599269
90	0xbfc5c733	-1.5451416
91	0x3f24381f	0.64148134
92	0x3f9400d0	1.1562748
93	0xbeae634e	-0.34060138
94	0xbe806fc9	-0.25085285
95	0xbf98a719	-1.1925994

lstm.bias_hh_l0 f4 [96]
0	0xc016cc2c	-2.3562117
1	0xbf8d1196	-1.1020992
2	0xc03368c7	-2.80327
3	0xbf52f565	-0.8240569
4	0x3e8ac6c8	0.27104783
5	0xc000c1f2	-2.0118375
6	0xbd298526	-0.041386746
7	0x3fa43956	1.2829998
8	0xbf966c16	-1.1751735
9	0x40222196	2.5333
10	0xc0151c39	-2.3298476
11	0x3f217b0e	0.6307839
12	0xbe8493d6	-0.2589404
13	0xc02ef884	-2.7339182
14	0xc00f0046	-2.2343917
15	0xc0c738c0	-6.2256775
16	0x3e54fc76	0.20799431
17	0xbf5645a9	-0.8370004
18	0xc0027880	-2.0386047
19	0x3f106935	0.56410533
20	0x3eabee73	0.3358036
21	0xbf634540	-0.8877754
22	0xbfb5e254	-1.4209695
23	0x3f1cc7f4	0.61242604
24	0x3ffa4e54	1.9555154
25	0xbfae281f	-1.3605994
26	0x3e75b47c	0.2399463
27	0xc0904aa0	-4.5091095
28	0xc01ac480	-2.4182434
29	0xbe8d1d06	-0.27561206
30	0xbeeacfc7	-0.45861647
31	0xbe3d92d6	-0.18513045
32	0x3fc7fcbd	1.5624005
33	0x3ffff101	1.9995424
34	0x3fd96e92	1.6986868
35	0x3fe39f7e	1.7783048
36	0x3f8f2823	1.1184124
37	0x3fa69286	1.3013465
38	0x400df185	2.2178662
39	0x3eb8352e	0.35978073
40	0x3f27013f	0.65236276
41	0xbf88496e	-1.0647409
42	0x3eea5e97	0.4577529
43	0x3f539014	0.8264172
44	0x3fefc2f0	1.8731365
45	0x3f833d39	1.0253059
46	0x3fe0a893	1.7551445
47	0x3fe34f19	1.7758514
48	0x3fb24795	1.3928095
49	0x3fc5acc1	1.5443345
50	0x3f8cce7b	1.1000513
51	0x3fb266f2	1.3937666
52	0xc00dd763	-2.2162712
53	0x3fa02ee5	1.2514311
54	0x3fd5780e	1.6677263
55	0x40225d26	2.5369353
56	0xbf9aceec	-1.2094398
57	0x3f39cb13	0.7257549
58	0x3f5c2f88	0.86010027
59	0x40209a1e	2.5094066
60	0x3c0738ee	0.008253319
61	0x3fe63f6d	1.7988106
62	0x3faffbdb	1.3748735
63	0x400b1400	2.1730957
64	0x406b7e87	3.6795976
65	0x405610e5	3.3447812
66	0xc01ade55	-2.41982
67	0x404c05d5	3.187856
68	0x40423cb1	3.0349543
69	0xc07d5c48	-3.9587574
70	0x40409772	3.0092435
71	0x4080a343	4.0199294
72	0xc0292a2a	-2.6431985
73	0x404a8e4c	3.164935
74	0x401734a2	2.3625875
75	0xc0471472	-3.110623
76	0x40462895	3.096227
77	0xc00dd658	-2.2162075
78	0x40106335	2.256055
79	0xbf51e83d	-0.8199499
80	0xc0237a56	-2.5543418
81	0xc0343667	-2.8158205
82	0xc03580f7	-2.8359964
83	0x405e9fb5	3.4784977
84	0xc04032ea	-3.0031075
85	0x4082d8ef	4.088981
86	0xc0ab6397	-5.355907
87	0x4010b367	2.2609499
88	0x406fae45	3.7450116
89	0xc05d7fdc	-3.460929
90	0xc0282300	-2.6271362
91	0x400fa7c3	2.2446144
92	0x3fbb54de	1.4635274
93	0x4050505c	3.2549047
94	0x403876e1	2.8822558
95	0xc0592860	-3.3930893

lstm.weight_ih_l1 f4 [96, 32]
0	0x3f85f5ee	1.0465677
1	0x40160d83	2.3445747
2	0xc0242fe6	-2.5654235
3	0xbe3553fc	-0.17707819
4	0x3ffd5667	1.9791993
5	0x3f31b6b9	0.6941944
6	0xbe0af913	-0.13571577
7	0x3e791839	0.24325646
8	0x3ffdc38d	1.9825302
9	0x3ee55893	0.4479414
10	0xbf02aba1	-0.51043135
11	0xc0078d1f	-2.1179883
12	0xbfb8304e	-1.4389741
13	0x3f8333f5	1.0250231
14	0xc02a096b	-2.6568248
15	0xc0037e91	-2.0546
16	0xbf687ca4	-0.90815187
17	0x3eb2bff9	0.3491209
18	0x3fdf274e	1.743387
19	0xbf211bde	-0.62933147
20	0xc0212ef0	-2.5184898
21	0x3f0f9d13	0.5609905
22	0xbf106b40	-0.5641365
23	0x3fc965b8	1.5734167
24	0x405a06b2	3.4066586
25	0xbeddd1dd	-0.43324175
26	0x403dc56e	2.9651752
27	0x3dbd39c0	0.092395306
28	0xbfc210aa	-1.5161335
29	0x3fbd43f1	1.4786359
30	0xbd6e1222	-0.05812276
31	0x3f18ce02	0.5968934
32	0x3e443e7a	0.19164458
33	0xbf1c6fe5	-0.6110824
34	0xbf844074	-1.033217
35	0xbfaf70f2	-1.3706343
36	0x3e355f44	0.17712122
37	0x3f493584	0.78597283
38	0xbf15cfd8	-0.5852027
39	0xbfd7ce0b	-1.6859754
40	0xbf014318	-0.50493
41	0x40242650	2.5648384
42	0x406cfab5	3.702802
43	0x400e7060	2.2256088
44	0x40d8b705	6.7723413
45	0x3f2cd7f6	0.6751703
46	0x3fddaefa	1.7319024
47	0xbf6d407f	-0.9267654
48	0xbf665b14	-0.89982724
49	0xc03a83cc	-2.9142942
50	0x400de40c	2.2170439
51	0xbf842d48	-1.0326319
52	0xbfcf37dd	-1.6188923
53	0xbff56cd0	-1.9173832
54	0x4062b0d4	3.5420427
55	0xbfa37b9a	-1.2772095
56	0xbfdfd0f6	-1.7485645
57	0xbe6c9cdb	-0.2310671
58	0x3ff934de	1.9469259
59	0x40081d10	2.1267738
60	0xc019d944	-2.4038858
61	0x40847ab6	4.1399794
62	0x3e988aca	0.29793388
63	0x40043ab5	2.0660832
64	0xc02aa1c3	-2.6661232
65	0xbfcf6240	-1.6201859
66	0xc04f9c57	-3.2439172
67	0x3f1bd3b0	0.60869884
68	0xc03907b6	-2.8910956
69	0xc03af9b7	-2.9214914
70	0x3f77c34b	0.9678237
71	0xc0122178	-2.2832928
72	0xbf14dba9	-0.58147675
73	0x3eb7d6f1	0.35906175
74	0x3fc3dab4	1.5301118
75	0xbf5eb492	-0.8699428
76	0x3ff0e118	1.8818693
77	0xc073a276	-3.8067908
78	0xbeac37af	-0.33636233
79	0x3db2517d	0.08706949
80	0xbf8e0e1d	-1.1098057
81	0xbfc8a2a4	-1.5674634
82	0x3f9f274c	1.2433867
83	0xbecb73f4	-0.39736903
84	0x40043455	2.065694
85	0x402634bb	2.5969684
86	0xbec34e74	-0.38145792
87	0xc027eb36	-2.6237311
88	0xc0160b7c	-2.344451
89	0xbf0afa60	-0.5428829
90	0xc0084275	-2.1290562
91	0xc01dc970	-2.4654198
92	0xbf9b38c2	-1.2126696
93	0x3f272ad9	0.65299755
94	0x40838873	4.1104064
95	0x406dc13f	3.7149198
96	0xbf3659e5	-0.7123092
97	0xc0d216e9	-6.5652966
98	0x3e3c61c7	0.18396674
99	0x406faddd	3.7449868
100	0xbfad8ef4	-1.3559251
101	0xc0025f57	-2.037069
102	0x3f09dbab	0.5385081
103	0xbefd2a90	-0.49446535
104	0x40323af5	2.7848485
105	0xc0117884	-2.2729807
106	0xbf026a3b	-0.50943345
107	0xc02dfec7	-2.7186754
108	0xbfe3d3f7	-1.7799062
109	0xbfd91f01	-1.6962587
110	0x3fe65424	1.7994428
111	0x3f706d33	0.93916625
112	0xbfc15957	-1.5105389
113	0xbf7c3623	-0.98520106
114	0xbea33927	-0.3187954
115	0xbfdf5bb9	-1.7449867
116	0x4035d29a	2.840979
117	0xc041af75	-3.026334
118	0x3f6a8295	0.916055
119	0x40b93d31	5.7887197
120	0x3f3a2bfc	0.72723365
121	0xbf0d41c0	-0.5517845
122	0x40098ddf	2.1492841
123	0xbeb9b1c4	-0.36268437
124	0xbf8296fe	-1.0202329
125	0x3f47d9f6	0.78066957
126	0x4004dc30	2.0759392
127	0xbffb49e3	-1.9631923
128	0xc0ae2ca9	-5.4429517
129	0xc048b355	-3.1359456
130	0xc075ff92	-3.8437238
131	0x3f0e3d6b	0.55562466
132	0xc00ef46e	-2.2336688
133	0xbeff4842	-0.49859816
134	0xc03cf3c8	-2.9523792
135	0x3f2a8c72	0.6662055
136	0x3fbff012	1.4995139
137	0xbf1ea9ef	-0.6197805
138	0xbe94c4df	-0.2905645
139	0xbe1e6534	-0.15468293
140	0x4023c3a7	2.5588167
141	0x3fca2552	1.5792639
142	0x4009ae61	2.1512682
143	0x3f4d08a0	0.80091286
144	0xbff477d3	-1.9099067
145	0x403d4fb6	2.9579902
146	0x4055a88b	3.338412
147	0xbfb34b5d	-1.4007374
148	0xbfb40599	-1.4064208
149	0x3f2899a0	0.65859413
150	0x4001afa0	2.0263443
151	0xc004ff8b	-2.078097
152	0xbf0ba0fb	-0.5454251
153	0xc028d4d8	-2.637991
154	0x3fc15f5d	1.5107228
155	0xc02161fc	-2.5216055
156	0xc074ec68	-3.826929
157	0xc047bdb6	-3.120954
158	0xc09f9b14	-4.9876804
159	0xbe0ce0d0	-0.13757634
160	0xc03b2c63	-2.9245842
161	0xbf6be850	-0.92151356
162	0xbfe92662	-1.8214839
163	0xbf12806b	-0.572272
164	0xbf8392cd	-1.0279175
165	0xbe2de366	-0.16981277
166	0xbec8c087	-0.39209387
167	0x3ff38b80	1.9026947
168	0x40815e23	4.0427413
169	0x4024ba57	2.5738733
170	0xbfb3592a	-1.4011586
171	0xbf8532cf	-1.040613
172	0xbe896b47	-0.2683966
173	0xc01f2a15	-2.4869435
174	0x3f02c9da	0.5108925
175	0x3fd3bbac	1.6541648
176	0xc088c6da	-4.274274
177	0xbf65777f	-0.8963546
178	0xc020a439	-2.5100234
179	0x3f41e07a	0.7573315
180	0xbf83580b	-1.0261244
181	0x3fd63881	1.6735994
182	0xc0505005	-3.254884
183	0x408c26cd	4.3797364
184	0x3f2ecb0a	0.68278563
185	0xc016bfb8	-2.3554516
186	0xc024c862	-2.5747304
187	0xbeb5c2d5	-0.35500208
188	0xc00908e0	-2.1411667
189	0xbe9f3414	-0.3109442
190	0xc0028562	-2.039391
191	0xc01e84d6	-2.4768577
192	0xc05ca25e	-3.44741
193	0xc0a367e4	-5.106432
194	0x3fedecbe	1.8587873
195	0x3fc453cc	1.5338073
196	0xbff8aba4	-1.942738
197	0xbe04cdbb	-0.12969105
198	0x409631a6	4.6935606
199	0x3f97a15c	1.1846118
200	0x3fffa092	1.9970877
201	0x3e0743a6	0.132094
202	0xbfc1c3e3	-1.5137905
203	0xc02303d4	-2.5471087
204	0xbe874929	-0.26423004
205	0xc0644fb9	-3.567366
206	0xbd717cc1	-0.058956865
207	0xbf0298a8	-0.51014185
208	0xc05042e4	-3.2540827
209	0x400bf2fb	2.1867054
210	0x3fbea366	1.4893615
211	0x408e2a29	4.4426465
212	0xc000598c	-2.0054655
213	0xbf178321	-0.5918446
214	0xbf55f021	-0.8356953
215	0x3f9e843a	1.2384102
216	0x40ad6681	5.4187627
217	0x405a9e0c	3.4158964
218	0xc02198c7	-2.5249498
219	0xc05959d0	-3.3961067
220	0xbf8d4474	-1.1036515
221	0xc0386648	-2.8812428
222	0xbe99a82d	-0.3001112
223	0xc06b03f4	-3.6721163
224	0x3ea551de	0.32289022
225	0x40195f01	2.3964236
226	0xc0b46663	-5.6374984
227	0x3e8b5810	0.27215624
228	0xc09cb827	-4.8974795
229	0xc000322b	-2.003062
230	0xbe7606ec	-0.24026078
231	0x3f0624b3	0.5239975
232	0x4084ef9a	4.154248
233	0x400e1a66	2.2203612
234	0x3f3389a8	0.7013192
235	0xbfdb7f6e	-1.7148263
236	0xbf5d290a	-0.86390746
237	0xc0af5b4b	-5.479894
238	0x40934d65	4.6031976
239	0xbfd98de6	-1.6996429
240	0x3fd5b086	1.6694496
241	0xbfdd9eea	-1.7314122
242	0x40917f0b	4.546758
243	0xbf2c1db9	-0.67232853
244	0xbf00f8bc	-0.5037954
245	0x4017da92	2.3727155
246	0x3fff8438	1.9962225
247	0x4108354c	8.513012
248	0xbf75312a	-0.95778143
249	0x3e6c0f2f	0.23052667
250	0xbec981cb	-0.39356837
251	0x3fcabea5	1.583943
252	0x3f413d45	0.75484115
253	0xc01e7465	-2.4758542
254	0x4000c019	2.0117247
255	0x4009847a	2.1487107

lstm.weight_hh_l1 f4 [96, 32]
0	0xbdb61007	-0.08889776
1	0x3e1825bf	0.14858149
2	0x3d7de04e	0.06198149
3	0x3e0e81bd	0.13916679
4	0xbdf5d563	-0.12003591
5	0x3c2cbcf4	0.010543097
6	0x3e1c352d	0.1525466
7	0x3dd7f69a	0.105450824
8	0xbd10ae9b	-0.035322767
9	0xbdb0c456	-0.08631198
10	0xbe02076d	-0.12698145
11	0x3dcc514c	0.09976444
12	0xbe011977	-0.1260737
13	0x3d7a05cd	0.06104069
14	0xbdb7cbe9	-0.0897444
15	0x3b0aed59	0.00211986
16	0xbe204db4	-0.15654641
17	0xbd84edfd	-0.06490705
18	0x3de6d928	0.11271888
19	0x3d1bcfe5	0.03804006
20	0x3cf605f5	0.030032137
21	0xbe133a4b	-0.14377706
22	0x3da7dc18	0.081962764
23	0x3db4ef62	0.08834721
24	0xbbc87a84	-0.0061181206
25	0xbd919552	-0.07108559
26	0x3e166a69	0.1468903
27	0x3da3a353	0.07990136
28	0xbd1320dc	-0.03592001
29	0x3dc4ca3e	0.09608887
30	0x3d4f6352	0.05063183
31	0x3e1b436b	0.15162437
32	0xbe03fef3	-0.12890224
33	0xbca3b840	-0.019985318
34	0xbd558360	-0.052127242
35	0xbd541e4f	-0.051786717
36	0xbc938b64	-0.018010803
37	0xbdb1c4e8	-0.08680135
38	0x3d0c5046	0.034256242
39	0xbdc3e7ab	-0.095656715
40	0xbe0e2284	-0.13880354
41	0xbd91e3f7	-0.07123559
42	0xbe0e46ab	-0.13894145
43	0x3d4301fb	0.04760931
44	0x3e2aeaf7	0.16691194
45	0x3cb161c7	0.02165307
46	0xbd9ab84a	-0.075546816
47	0xbcfe0eb5	-0.031012872
48	0x3d209434	0.039203838
49	0x3cb1efbb	0.021720758
50	0xbe08ec4d	-0.13371392
51	0x3bbbab22	0.0057271877
52	0xbe314c48	-0.17314255
53	0x3d239ed7	0.039946403
54	0xbdffe08c	-0.12494001
55	0xbda7e259	-0.08197469
56	0xbda4d162	-0.08047749
57	0x3cfbabdb	0.030721596
58	0xbd47ac76	-0.048748456
59	0x3d88eec0	0.06686163
60	0xbd474a1b	-0.048654657
61	0x3dfdaa03	0.12385943
62	0xbe1b68ad	-0.1517665
63	0xbcb9b7df	-0.022670684
64	0xbd9fa876	-0.07795803
65	0xbc257549	-0.010098764
66	0xbc4cacf7	-0.01249241
67	0x3da64c72	0.081200495
68	0xbd32e009	-0.043670688
69	0x3e1137a1	0.14181377
70	0x3dea6413	0.11444869
71	0xbd9d7666	-0.07688598
72	0xbd43eb6a	-0.04783193
73	0xbdde2576	-0.10846989
74	0xbd9929de	-0.07478689
75	0x3d4bfc3c	0.049801096
76	0xbd7e830d	-0.0621367
77	0xbe1bfd0f	-0.15233253
78	0x3ca262f1	0.01982257
79	0xbded7c52	-0.11595978
80	0x3c5cb3f4	0.013470639
81	0x3dd3f193	0.10348811
82	0xbdf5067e	-0.11964129
83	0xbdf3f529	-0.11911995
84	0xbd8de4fe	-0.069284424
85	0xbd02287c	-0.03177689
86	0xbe309fc0	-0.1724844
87	0x3dfd19c6	0.123584315
88	0x3e10b23e	0.14130494
89	0xbb405652	-0.0029348326
90	0x3d861f8f	0.06548988
91	0x3de637f5	0.11241142
92	0x3da0f032	0.078583136
93	0xbd4c3051	-0.049850766
94	0x3cf67745	0.030086169
95	0xbe2c52fe	-0.16828534
96	0xbc23f6a7	-0.010007537
97	0x3cf938c9	0.030422585
98	0xbe02ac34	-0.12761003
99	0xbe054a13	-0.13016538
100	0x3e1c1e54	0.15245944
101	0x3cace3cd	0.021104718
102	0x3e2f04c2	0.17091659
103	0xbd64b2d9	-0.055834625
104	0xbe209b2c	-0.15684193
105	0xbe081ebc	-0.13292974
106	0x3dda876a	0.106703594
107	0x3d01dd00	0.031704903
108	0x3e29f8ba	0.16598788
109	0x3e3467c2	0.17617705
110	0x3d71ea83	0.05906154
111	0xbdbd3d30	-0.09240186
112	0xbde978aa	-0.11399968
113	0xbe1f0e62	-0.1553283
114	0xbcbeda9a	-0.023297597
115	0x3da90e51	0.08254684
116	0x3d5d02c6	0.053957723
117	0xbd9ebb21	-0.07750536
118	0xbdbe7133	-0.09298935
119	0x3d828da8	0.06374675
120	0x3d6258d6	0.0552605
121	0x3e267b0e	0.16257879
122	0x3d85bacc	0.06529769
123	0xbdc8fc67	-0.09813767
124	0xbe1c4a50	-0.15262723
125	0xbb1c7177	-0.0023871341
126	0xbe33abe7	-0.17546044
127	0x3e065c4e	0.13121149
128	0xbde86b09	-0.1134854
129	0x3de69be1	0.112602
130	0xbd8dc9b4	-0.069232374
131	0x3d485a25	0.048914094
132	0x3e162618	0.14662969
133	0xbd4d7568	-0.050160795
134	0x3dff1166	0.1245449
135	0x3e17cf6f	0.14825223
136	0x3dd26ba9	0.10274441
137	0x3e0f9132	0.14020231
138	0xbd76be34	-0.060239986
139	0xbd8c4b45	-0.06850294
140	0xbd974366	-0.07385902
141	0x3d48aadd	0.048991073
142	0xbd6487ac	-0.05579345
143	0xbd848a5d	-0.06471703
144	0x3dc30280	0.09521961
145	0x3d26e5ef	0.040746626
146	0xbe2da7a6	-0.16958484
147	0xbe30d1d5	-0.17267545
148	0xbe26babd	-0.16282173
149	0x3e03a0e3	0.12854342
150	0x3df3064e	0.11866437
151	0xbdec31a1	-0.115329035
152	0xbda7993d	-0.08183525
153	0xbe11f827	-0.14254819
154	0xbe232ae1	-0.15934326
155	0x3e1867f3	0.14883403
156	0x3d34a457	0.04410204
157	0xbd31e541	-0.043431524
158	0x3dc45d4e	0.09588109
159	0x3df6e8f3	0.1205615
160	0xbe1007c7	-0.14065467
161	0xbdb3d112	-0.08780111
162	0x3d32609a	0.043549158
163	0x3d4a3760	0.049369216
164	0xbe1d557b	-0.1536464
165	0x3d2325dc	0.039831027
166	0xbe209148	-0.1568042
167	0x3d11a93b	0.03556178
168	0x3b0fb7d3	0.0021929636
169	0xbe2370fa	-0.15961066
170	0x3e088410	0.13331628
171	0x3e0eace9	0.13933147
172	0x3d57badf	0.05266845
173	0x3cad03cc	0.021119975
174	0x3d8e599f	0.069506876
175	0x3d21023a	0.039308764
176	0xbd9cf2d0	-0.076635
177	0x3d1243d3	0.035709213
178	0x3be16a74	0.0068791453
179	0x3e1cf4bf	0.15327738
180	0xbdbf0c30	-0.093284965
181	0x3ddf253f	0.10895776
182	0xbd6fde58	-0.058561653
183	0xbe115345	-0.14191921
184	0xbd368444	-0.044559732
185	0x3df4a7fe	0.119461045
186	0xbdd4c9d6	-0.1039006
187	0x3c555c32	0.013022469
188	0x3e21e051	0.15808226
189	0xbc094eb8	-0.008380584
190	0x3d943192	0.07236017
191	0xbda91cd0	-0.08257449
192	0xbd138583	-0.036016
193	0xbc141114	-0.009037275
194	0x3d6494bb	0.055805903
195	0xbc70a8b6	-0.014688661
196	0x3cbb1b31	0.022840114
197	0xbc488a13	-0.012239951
198	0xbe1b77fb	-0.15182488
199	0x3d3d10aa	0.04615847
200	0xbe023583	-0.12715726
201	0x3e05617d	0.1302547
202	0x3d9ebc93	0.077508114
203	0xbdadb573	-0.08481874
204	0xbd95af25	-0.07308797
205	0xbc639d7d	-0.013892529
206	0xbe2bdac2	-0.16782668
207	0x3e2502a1	0.16114284
208	0xbddb20ae	-0.106995925
209	0xbc566135	-0.013084699
210	0xbdf8970f	-0.12138187
211	0x3dd94e11	0.10610593
212	0xbd12804d	-0.03576689
213	0xbdf472c0	-0.11935949
214	0x3e30f4d5	0.17280896
215	0x3e15643c	0.14589018
216	0x3d80dbb7	0.06291907
217	0x3dc581bc	0.096438855
218	0x3ddf95f3	0.109172724
219	0xbe1c5432	-0.15266493
220	0x3e0ef00f	0.13958763
221	0xbe09fcc7	-0.13475333
222	0xbe0f3869	-0.13986363
223	0xbdc17a8b	-0.09447201
224	0xbdbf9986	-0.09355454
225	0x3d3630df	0.0444802
226	0xbd830432	-0.063972846
227	0x3d9bb399	0.07602615
228	0x3e02d5f5	0.1277693
229	0x3b06eedf	0.0020589156
230	0x3d3c1e5e	0.045927398
231	0x3dba0944	0.090837985
232	0xbdebb0f8	-0.115083635
233	0x3dabf83f	0.083969586
234	0x3e0efaa0	0.13962793
235	0xbde64bde	-0.11244939
236	0xbdaf066e	-0.08546148
237	0x3d5719f1	0.052514974
238	0xbda07a6b	-0.078358494
239	0xbd4646c7	-0.048407342
240	0xbd13b6b3	-0.036062907
241	0x3da20131	0.079103835
242	0xbb7fcc73	-0.0039031773
243	0x3e1269da	0.14298192
244	0x3aec4add	0.0018027682
245	0xbe207290	-0.15668702
246	0x3de20dbd	0.110377766
247	0x3e2b18e5	0.16708715
248	0xbdb64b94	-0.08901134
249	0xbdff39f2	-0.12462224
250	0xbdfc5e50	-0.12322676
251	0x3e19e7bc	0.15029806
252	0x3dbd4d90	0.092433095
253	0xbe1eb60c	-0.15499133
254	0x3de83872	0.11338891
255	0xbdde264f	-0.108471505

lstm.bias_ih_l1 f4 [96]
0	0xbf9c0a52	-1.219065
1	0xbfffad21	-1.997471
2	0x3f380af8	0.71891737
3	0xbf35159f	-0.70736116
4	0x3f7059a9	0.9388681
5	0x3ff5a32f	1.9190425
6	0x3fd0e6cd	1.6320435
7	0xbea0c632	-0.3140121
8	0x3f2a6695	0.6656278
9	0x3f46cb28	0.7765374
10	0xbf988837	-1.191657
11	0xc053daf3	-3.3102386
12	0x3f5ef8cc	0.87098384
13	0xbda19164	-0.07889059
14	0x406bff8a	3.6874719
15	0xbf2ac5e7	-0.66708225
16	0x3ee5793f	0.44819066
17	0x4022c9b8	2.543562
18	0xbfe66eb0	-1.8002529
19	0x3f0a0263	0.5390989
20	0x3e82dd99	0.2555969
21	0xc0127d28	-2.288889
22	0xc0516baf	-3.2721975
23	0x3e96215b	0.29322323
24	0xc04f9abb	-3.243819
25	0xc0070c4d	-2.1101258
26	0x4023eeec	2.5614576
27	0xc090c728	-4.524311
28	0xc01936f1	-2.3939784
29	0xc03800f5	-2.8750584
30	0x3f546b64	0.82976365
31	0xbf1c7c5d	-0.61127263
32	0x40648803	3.5708015
33	0x404bb041	3.1826327
34	0x40282684	2.6273508
35	0x400fbece	2.2460208
36	0x3f858cd1	1.0433599
37	0x3f96c437	1.177863
38	0x3fd12bd7	1.6341504
39	0x3fd943d8	1.6973829
40	0x4004e90e	2.0767245
41	0x403e13fd	2.96997
42	0x4009402f	2.1445425
43	0x3fe23633	1.767279
44	0x3f16f8ee	0.58973587
45	0x3eac9b64	0.33712304
46	0x3f7bde4a	0.9838606
47	0x3f24bb27	0.6434807
48	0x3ff25aea	1.8933995
49	0xbf29a1c7	-0.6626248
50	0x4052b4f1	3.2922938
51	0x403ae69e	2.9203258
52	0xc00e5125	-2.2237027
53	0x3fdbed06	1.7181709
54	0x3f69e5a6	0.9136604
55	0x400bc12c	2.1836653
56	0x4027704f	2.6162298
57	0x4005a1cd	2.0880005
58	0x3fee7486	1.862931
59	0x400ec995	2.2310536
60	0x40627ff0	3.5390587
61	0x40554aad	3.3326828
62	0x3f4cf001	0.80053717
63	0x40205a19	2.5054991
64	0xbfdab96c	-1.7087836
65	0x3f179e3e	0.59225833
66	0xc02e752d	-2.7259018
67	0xbf74891b	-0.95521706
68	0x3feddb2c	1.8582511
69	0x4044e398	3.0763912
70	0xbfc822d6	-1.5635631
71	0xbf410d29	-0.75410706
72	0x4012778d	2.2885468
73	0x3eb9869a	0.36235505
74	0x401084b5	2.2580998
75	0x3ff26ab8	1.8938818
76	0xc020cb03	-2.5123909
77	0x3e84383c	0.25824153
78	0x406e789d	3.7261117
79	0xc01d2f03	-2.4559944
80	0x3f910a82	1.1331332
81	0xc0349522	-2.8216023
82	0xbf191f86	-0.59813726
83	0xbff08df8	-1.8793325
84	0xc07a1dc9	-3.908068
85	0xbf01a6c6	-0.506451
86	0xbefb2842	-0.49054152
87	0x3fb829c2	1.4387743
88	0x3d624f2c	0.055251285
89	0xbecc14be	-0.39859575
90	0x4055ea70	3.342434
91	0x3f8dcfb3	1.107901
92	0x3ebe5f27	0.3718197
93	0x3f026010	0.5092783
94	0xbfebb256	-1.8413799
95	0x3fa5a6d9	1.2941543

lstm.bias_hh_l1 f4 [96]
0	0xbfb9a355	-1.450297
1	0xbffd34d7	-1.978175
2	0x3f294260	0.66116905
3	0xbefa59b9	-0.48896578
4	0x3f4c4aa3	0.79801387
5	0x40040122	2.0625691
6	0x3fd8bfdd	1.6933552
7	0xbeac8eaa	-0.33702594
8	0x3f3365fa	0.7007748
9	0x3f778468	0.9668641
10	0xbf7a015d	-0.9765833
11	0xc0482ecd	-3.1278565
12	0x3f7bd37a	0.9836956
13	0xbe42de76	-0.19030175
14	0x40574f7e	3.3642268
15	0xbf586740	-0.84532547
16	0x3ed46f09	0.41490963
17	0x402d8453	2.7112014
18	0xc0047b3e	-2.070022
19	0x3e99dc9d	0.30051127
20	0x3e00dddb	0.12584631
21	0xbfff67a8	-1.9953508
22	0xc05113f3	-3.2668426
23	0x3e9e3aed	0.30904332
24	0xc0482fdd	-3.1279213
25	0xbff04453	-1.8770851
26	0x4017386d	2.362819
27	0xc0934ed8	-4.6033745
28	0xc0171c76	-2.361112
29	0xc032fa63	-2.7965324
30	0x3f465c30	0.77484417
31	0xbf1a998c	-0.60390544
32	0x4074e517	3.8264825
33	0x404cc539	3.1995375
34	0x402b8730	2.6801262
35	0x40197684	2.3978586
36	0x3f8e52a6	1.1118972
37	0x3f62e980	0.8863754
38	0x3fd1dc03	1.6395267
39	0x3fd58942	1.6682513
40	0x3ff4299a	1.9075196
41	0x402dc481	2.7151186
42	0x3ffb45d9	1.9630691
43	0x3fc6d8b5	1.5534884
44	0x3ea796cb	0.32732233
45	0x3ebcd750	0.3688302
46	0x3f820d82	1.0160372
47	0x3f2d1966	0.6761688
48	0x4002ed61	2.0457385
49	0xbf595853	-0.849004
50	0x404c4b25	3.1920865
51	0x4039a9f6	2.9009986
52	0xc0153ff7	-2.332029
53	0x3fdd723a	1.7300484
54	0x3f8e2a37	1.1106633
55	0x4005f7f6	2.0932593
56	0x401608d7	2.3442895
57	0x400887d7	2.133291
58	0x3fdcb3b5	1.7242342
59	0x40084864	2.1294184
60	0x406621b8	3.595808
61	0x40583719	3.378363
62	0x3f7dcc05	0.99139434
63	0x40322ba5	2.7839139
64	0xbfcf3aae	-1.6189783
65	0xbfe18a20	-1.7620277
66	0xc04ea20d	-3.2286408
67	0xbff3f263	-1.9058346
68	0x3ffc0fac	1.9692283
69	0x40364a2e	2.8482776
70	0xc022f6b8	-2.5463085
71	0xc0a111b1	-5.0334096
72	0x4057d4a3	3.3723533
73	0x3fccb99d	1.5994145
74	0x4031d9d7	2.778921
75	0xc0666074	-3.599637
76	0xbff81992	-1.9382803
77	0x3f8d0e0d	1.1019913
78	0x40822a9c	4.0677013
79	0x3f924c4a	1.1429532
80	0x3f99adf1	1.2006208
81	0xc08c7202	-4.388917
82	0x3e188f9a	0.1489853
83	0xc025b3f3	-2.5891082
84	0xc03e06f1	-2.9691737
85	0xc004e411	-2.07642
86	0x3f32b49f	0.69806856
87	0x405f56ea	3.4896798
88	0x3e4ca208	0.19983685
89	0x3fe53c1a	1.7908967
90	0x40a139ab	5.0382895
91	0xbf73f5f1	-0.9529715
92	0xbf2efd77	-0.68355507
93	0x3fb66c8b	1.4251875
94	0xc0539ef8	-3.3065777
95	0x401fc544	2.4964151

lstm.weight_ih_l2 f4 [96, 32]
0	0xbf88a73d	-1.0676037
1	0x3f13d519	0.57747036
2	0x40c8caf3	6.274774
3	0x401947c5	2.3950055
4	0xc006fa80	-2.1090393
5	0xbefccd65	-0.49375454
6	0x4072bdf5	3.792844
7	0x4091324d	4.53739
8	0xbf985783	-1.1901706
9	0xc0819cf8	-4.050411
10	0xc05b5123	-3.4268272
11	0xbedef9fa	-0.43550092
12	0x3fb400ef	1.4062785
13	0x4008ad0a	2.1355615
14	0xc01a4eca	-2.411059
15	0x3ec2b187	0.38026068
16	0x3f33d2d8	0.702436
17	0x3e8ef059	0.27917746
18	0x3f8460aa	1.0342
19	0x404d4e24	3.2078943
20	0xbfbdec65	-1.4837767
21	0xbfd0c8f5	-1.6311327
22	0xc006f92c	-2.1089582
23	0xbf621890	-0.8831873
24	0xbf8e8e38	-1.1137152
25	0x3f860ffa	1.0473626
26	0xbf2e3c00	-0.680603
27	0xbffed76c	-1.9909492
28	0xbf1fa688	-0.6236348
29	0x3f8cda88	1.100419
30	0x3f9b5432	1.2135069
31	0xc078a795	-3.8852284
32	0xc0040bcc	-2.06322
33	0xbee4bf6f	-0.44677302
34	0x3dc1e36c	0.094672054
35	0x3e843b46	0.25826472
36	0xbfad2ae0	-1.352871
37	0xbf2a14e0	-0.664381
38	0x3e267db9	0.16258897
39	0xbeaed1ff	-0.3414459
40	0x402a1e05	2.6580822
41	0xc001593e	-2.021072
42	0x409454bf	4.635345
43	0xc002d7ec	-2.0444288
44	0x3fb9fa7d	1.4529568
45	0x3fad5bd0	1.3543644
46	0x40c808ff	6.251098
47	0x3f024d02	0.50898755
48	0xc06005fd	-3.5003655
49	0x3f94972c	1.1608634
50	0xc06bf2ae	-3.686687
51	0xbfcf5931	-1.6199094
52	0x3eb6e62e	0.35722488
53	0xc006c0c1	-2.1055148
54	0x4030951e	2.7591014
55	0x3fb3e083	1.405289
56	0x3eddc9dc	0.4331807
57	0xbff390e6	-1.9028594
58	0x40850c3b	4.157743
59	0x3fddb380	1.7320404
60	0x402f2a92	2.7369733
61	0x3f9a0ea7	1.2035722
62	0xbfcffdf8	-1.624938
63	0xbf9ae8e8	-1.2102327
64	0x3f4ecae8	0.8077836
65	0x402ebb52	2.7301831
66	0xbd836150	-0.06415045
67	0x4032858a	2.7894006
68	0xc02eee72	-2.7333035
69	0xc03ad63f	-2.9193265
70	0x40a0e4a0	5.0279083
71	0x3fd2e473	1.6475967
72	0xc08180c9	-4.046971
73	0xc03e8998	-2.977148
74	0x3eeae223	0.45875654
75	0x3f1a35d3	0.6023838
76	0x40326dbc	2.7879477
77	0xbe8d8ed0	-0.2764802
78	0x3f2dd0eb	0.6789691
79	0xbf9f8c8e	-1.2464769
80	0xbf2bc662	-0.67099583
81	0x4099aacb	4.8020988
82	0x3ef7eff3	0.48425254
83	0x401c41e3	2.4415214
84	0xbfa609d5	-1.297175
85	0xbf668dbb	-0.90060014
86	0xbfef868a	-1.8712933
87	0xbfd15f63	-1.6357235
88	0xbef6a390	-0.48171663
89	0xc026984f	-2.6030462
90	0xbfe340a1	-1.7754098
91	0xc033b3cd	-2.8078492
92	0xc012a43d	-2.2912743
93	0xbfb500a7	-1.4140824
94	0x4015a325	2.3380826
95	0xbfb041ee	-1.377012
96	0x3f4af834	0.7928498
97	0x3ea14b60	0.3150282
98	0x3f91e8ab	1.139913
99	0x3fb8ef59	1.4448043
100	0xbe6bcd20	-0.23027468
101	0xbdf8299d	-0.12117312
102	0x409b9b52	4.86271
103	0x3fd5eafe	1.6712339
104	0x3d68517d	0.05671834
105	0xbd65fd38	-0.05614969
106	0xbf219646	-0.63119924
107	0x3fb35c6b	1.4012579
108	0x3f7f5d8d	0.9975212
109	0x3deb3483	0.11484625
110	0xc0015cfb	-2.0213
111	0x40159a7e	2.3375545
112	0xbfab9d4a	-1.3407376
113	0x3fe64072	1.7988417
114	0x3f5e0629	0.8672815
115	0x3f3cfed7	0.73826355
116	0x3f0212aa	0.5080973
117	0x3ed8b862	0.42328173
118	0x3fce6860	1.6125603
119	0xbf944ad0	-1.1585331
120	0xbf4bf257	-0.79666656
121	0xbeae60e0	-0.34058285
122	0xc00a37c5	-2.159654
123	0xbfce04e5	-1.6095244
124	0x3ec7e6fc	0.39043415
125	0x3d582e50	0.052778542
126	0x3fab942f	1.3404597
127	0xc065046b	-3.5783947
128	0xc0498860	-3.1489487
129	0xbffd1668	-1.9772463
130	0x3def55f1	0.11686314
131	0x3e826246	0.25465602
132	0x3f26c525	0.6514457
133	0xc030127a	-2.7511277
134	0x3ebfc14b	0.37452158
135	0x3f40f434	0.75372624
136	0xbff7ea3f	-1.9368361
137	0x3f5d3088	0.8640218
138	0x3f8456be	1.0338972
139	0x3e426d42	0.18986991
140	0xbf4d121d	-0.80105764
141	0xbf3d685b	-0.7398736
142	0x4025beec	2.589778
143	0xbd87c938	-0.06630176
144	0x4066ab76	3.6042151
145	0xc0043a19	-2.066046
146	0xbfea301e	-1.8295934
147	0xc0549899	-3.3218138
148	0x3f82e096	1.0224788
149	0xc08b3d7b	-4.351255
150	0x3fd82227	1.6885422
151	0xbf9080eb	-1.1289343
152	0xbf65a241	-0.89700705
153	0x3dfa1ae5	0.12212161
154	0x3f828521	1.0196878
155	0x400462c3	2.068528
156	0xc00968b5	-2.1470158
157	0x3da2d49c	0.07950708
158	0x3fbe4812	1.4865744
159	0x3f20cb91	0.6281062
160	0xc031e238	-2.7794323
161	0xc067339d	-3.6125252
162	0x401bd82b	2.4350688
163	0x3fc8b1e0	1.5679283
164	0x3f74a25e	0.9556025
165	0x3d3f6834	0.046730235
166	0x4030549d	2.7551644
167	0xbe331927	-0.17490064
168	0x3fb60dd4	1.422297
169	0x3fe9e8bb	1.8274149
170	0x3f9806d1	1.187708
171	0xbfdee72e	-1.74143
172	0xbf37995e	-0.71718395
173	0xbf814704	-1.0099797
174	0xc0231412	-2.5481
175	0x3eef1070	0.46692228
176	0xbf97adaa	-1.1849873
177	0x3de1555a	0.11002608
178	0xbfa5c526	-1.295079
179	0xbf24a712	-0.6431743
180	0x3fb4ed33	1.4134887
181	0xc06618e8	-3.5952702
182	0xbf170eec	-0.59007144
183	0x3f4a1f1a	0.7895371
184	0x3fd7f876	1.6872699
185	0xbf4c3108	-0.79762316
186	0xbf579cfe	-0.84223926
187	0x3f949b5d	1.1609913
188	0x400fd266	2.2472167
189	0x3e12abd7	0.14323364
190	0xbeab4474	-0.33450663
191	0x3e94e8cc	0.2908386
192	0x40fc5094	7.884836
193	0x40f682f3	7.703485
194	0x3f29661f	0.6617145
195	0x3fa0b7b0	1.2556057
196	0xc019f912	-2.405827
197	0x3fbb60c3	1.4638904
198	0x40320a88	2.7818928
199	0xbffd4878	-1.9787741
200	0xbfec6747	-1.8469018
201	0xbfa47bd8	-1.2850294
202	0xbff09298	-1.8794737
203	0x4104673e	8.275206
204	0x3f7e2b0b	0.9928443
205	0x405bd4cc	3.434863
206	0xc0692993	-3.6431625
207	0xbeccdc2c	-0.40011728
208	0xbe918fda	-0.28430063
209	0xbfbb2228	-1.4619799
210	0x40a556f2	5.1668634
211	0xbf32a325	-0.6978019
212	0x3f4b80dd	0.79493505
213	0xc029719a	-2.6475587
214	0x4083042b	4.094259
215	0xc03c886d	-2.9458268
216	0xbe907adb	-0.2821873
217	0x3da0a933	0.07844772
218	0xc0febe49	-7.960728
219	0x3e3f1c2a	0.18663087
220	0xc04c8778	-3.1957684
221	0x3fe7af9c	1.8100467
222	0xbf75b668	-0.95981455
223	0xc0a7c3cd	-5.2426515
224	0x3fdc047c	1.7188869
225	0x3cd1e753	0.025623
226	0x3ff64092	1.9238455
227	0x40637ac0	3.554367
228	0xbfd83790	-1.6891956
229	0x3f2e9807	0.68200725
230	0x3f8afde9	1.0858737
231	0x40399724	2.89985
232	0x3e477e52	0.19481781
233	0xbf61209a	-0.8794037
234	0x3e819d5e	0.25315374
235	0xbeaa58d6	-0.332709
236	0xbf21799c	-0.63076186
237	0xbf9aa329	-1.2081043
238	0x40013ebf	2.0194547
239	0x40451696	3.0795035
240	0x3de7d724	0.11320332
241	0x40011314	2.0167894
242	0x3feadcf2	1.8348677
243	0x4012996d	2.2906144
244	0xc037ea12	-2.8736615
245	0xbeaaf884	-0.33392727
246	0x3e228b5c	0.15873474
247	0xbeb4c036	-0.35302895
248	0xbfc280b8	-1.5195532
249	0x3d180ccf	0.03712159
250	0xc02ad400	-2.6691895
251	0xc0754051	-3.8320506
252	0xbf9efb7d	-1.2420498
253	0xbe265794	-0.16244346
254	0x3f5829ae	0.844386
255	0xc0524fea	-3.2861276

lstm.weight_hh_l2 f4 [96, 32]
0	0x3da8b0a2	0.08236815
1	0xbddd11e0	-0.10794425
2	0x3dc7ca89	0.097554274
3	0xbd809706	-0.062788054
4	0xbe145e97	-0.14489208
5	0x3bd1b3e6	0.0063996194
6	0x3cc6b3cd	0.024255658
7	0xbdbbcab3	-0.09169521
8	0xbe1fc540	-0.15602589
9	0xbda464e2	-0.08027054
10	0xbd6f988a	-0.058495082
11	0xbd0b8057	-0.03405794
12	0x3e01b1ae	0.12665436
13	0xbd9282e0	-0.07153869
14	0xbe13ed86	-0.14446077
15	0x3d918298	0.07104987
16	0x3e165282	0.14679912
17	0xbe31e633	-0.1737297
18	0x3d5a9644	0.05336596
19	0xbe25b11d	-0.16180845
20	0xbc18f2e3	-0.009335252
21	0x3da6f755	0.081526436
22	0xbddd4ed2	-0.108060494
23	0xbd8922ca	-0.066960886
24	0x3d85be4c	0.06530437
25	0x3e1da460	0.15394735
26	0xbe0b6c60	-0.1361556
27	0x3d361f4e	0.04446345
28	0x3c834fa3	0.016029185
29	0x3e052dd6	0.13005766
30	0xbc32f2e2	-0.010922166
31	0xbdf467d0	-0.11933863
32	0x3e21fb43	0.15818505
33	0x3d75bc21	0.059993867
34	0xb9eecd9f	-0.00045548097
35	0xbd75aaac	-0.05997722
36	0x3dd22482	0.102608696
37	0x3e131a74	0.1436556
38	0x3d81ba2a	0.06334336
39	0xbe0854ca	-0.13313594
40	0x3d4dc0a0	0.05023253
41	0x3e100caf	0.14067338
42	0x3d99adc3	0.075038455
43	0x3ddaf164	0.10690573
44	0x3d3ef2ab	0.046618145
45	0x3e10ff74	0.14159948
46	0x3dc54f11	0.09634221
47	0xbe3314bd	-0.1748838
48	0x3e112cba	0.14177218
49	0xbe017b0d	-0.12644596
50	0xbdb52d28	-0.088465035
51	0xbcd78f7f	-0.026313541
52	0x3e0dbd16	0.13841662
53	0xbdd0d82d	-0.10197482
54	0xbe17f897	-0.14840923
55	0xbdd77abc	-0.105214566
56	0xbcfad261	-0.030617895
57	0x3d3fd376	0.046832524
58	0x3cfac1e4	0.030610032
59	0xbd9bac92	-0.076012745
60	0xbd817c83	-0.06322577
61	0xbdfed2c1	-0.12442542
62	0x3dab78bf	0.0837264
63	0xbdae9145	-0.08523802
64	0x3da744eb	0.08167442
65	0x3d496678	0.049169987
66	0x3df50aa0	0.11964917
67	0xbdc8dffa	-0.09808345
68	0x3c8cd086	0.017189275
69	0xbe332832	-0.17495802
70	0xbd34e7bd	-0.044166315
71	0x3deb0655	0.11475817
72	0x3e217165	0.15765913
73	0x3dc1eaf6	0.09468643
74	0xbd6912f9	-0.05690286
75	0xbd963b9d	-0.07335589
76	0xbe17ea34	-0.14835435
77	0xbe188456	-0.14894232
78	0xbe04ccc1	-0.12968732
79	0x3dc2269a	0.09480019
80	0xbc5f2e67	-0.013621903
81	0xbe2994f2	-0.16560724
82	0x3cf1d1c9	0.029518979
83	0xbd5398ee	-0.051659517
84	0x3d96ba6e	0.073597774
85	0xbd85c54d	-0.06531773
86	0xbcf07a4e	-0.029355194
87	0x3b0efbbc	0.0021817526
88	0xbb085c72	-0.0020807055
89	0x3bbbcb4e	0.005731023
90	0xbbfea788	-0.007771436
91	0x3dc47328	0.09592277
92	0xbb24de7f	-0.0025157032
93	0xbcc0eddc	-0.02355092
94	0xbd9fe932	-0.0780815
95	0x3dc2a30a	0.095037535
96	0xbe00b461	-0.12568809
97	0x3c953b09	0.018216627
98	0x3c62f532	0.013852404
99	0x3dd26e7a	0.10274978
100	0xbdfbbd89	-0.1229201
101	0x3e0b1913	0.13583784
102	0x3d841d81	0.0645094
103	0xbd412fc1	-0.047164682
104	0x3d8f87d8	0.07008332
105	0x3e34c84b	0.1765453
106	0xbc09d34d	-0.008412194
107	0xbd5c18be	-0.053734533
108	0x3cacdb89	0.021100776
109	0xbd297451	-0.041370694
110	0xbd817f1c	-0.06323072
111	0xbe0bee22	-0.13665059
112	0x3d66716e	0.05626052
113	0xbd86e48b	-0.0658656
114	0x3cc2015e	0.023682293
115	0x3dbfb9ed	0.093616344
116	0xbc8671a0	-0.016411602
117	0x3daef129	0.085420914
118	0x3e10b934	0.1413315
119	0x3dd966fe	0.10615347
120	0x3dada239	0.08478207
121	0x3acf35bc	0.0015808861
122	0xbdcdca57	-0.10048359
123	0x3d8faa8c	0.07014951
124	0xbe334e06	-0.17510232
125	0x3e1746da	0.14773121
126	0x3e22c9e1	0.15897323
127	0xbdb3fef2	-0.08788861
128	0xbd17bd44	-0.037045732
129	0xbe32ad24	-0.1744886
130	0xbdb695d3	-0.089152955
131	0xbcad0eef	-0.021125285
132	0xbde5bd41	-0.11217738
133	0x3e13b704	0.14425284
134	0x3d2c2257	0.042024937
135	0xbdcb93a0	-0.099402666
136	0xbda15ee9	-0.07879431
137	0xbc73136e	-0.014836175
138	0xbd5cf9ef	-0.053949293
139	0x3d649dfd	0.055814732
140	0xbe15569a	-0.14583817
141	0x3ddef817	0.10887163
142	0xbcfd8d9e	-0.030951317
143	0x3e0644f2	0.13112238
144	0xbdd5fbd6	-0.104484245
145	0x3e17ccee	0.14824268
146	0xbc192d67	-0.009349204
147	0xbe0a0c40	-0.13481236
148	0xbda2f0f8	-0.079561174
149	0xbdd01066	-0.10159378
150	0xbde655d8	-0.11246842
151	0xbe2f5369	-0.17121662
152	0x3e19121a	0.14948311
153	0x3e2b2cb7	0.16716276
154	0x3d92e278	0.07172102
155	0xbdb44676	-0.08802502
156	0xbde09b59	-0.1096713
157	0x3e26ef86	0.16302308
158	0x3d92d2ef	0.07169139
159	0x3c687e97	0.014190338
160	0xbd13e0a4	-0.036102906
161	0xbcd11b85	-0.025525818
162	0x3d64edc8	0.05589083
163	0xbde973ed	-0.11399064
164	0xbcb686a2	-0.022280995
165	0xbd142b76	-0.03617426
166	0x3dc50765	0.09620551
167	0x3bcdd23d	0.006281166
168	0xbdb397bb	-0.08769175
169	0xbd62aff7	-0.055343594
170	0xbda7680a	-0.08174141
171	0x3e0a32bd	0.13495918
172	0x3dbfc63c	0.09363982
173	0x3a84e39d	0.0010138635
174	0x3e28a48e	0.16469023
175	0xbd83b720	-0.06431413
176	0xbe1d204a	-0.15344349
177	0x3de645e1	0.11243797
178	0xbe120723	-0.14260535
179	0x3e0c4c53	0.1370099
180	0xbe1bf585	-0.15230377
181	0xbdad9c9f	-0.08477139
182	0x3dca7087	0.09884744
183	0xbc9bb013	-0.019004857
184	0x3bb51fff	0.005527496
185	0x3e014bce	0.12626573
186	0x3d06b3f6	0.032886468
187	0x3cbb5669	0.022868352
188	0xbdfe1641	-0.12406588
189	0xbd8a75e2	-0.067607656
190	0x3d1557f0	0.036460817
191	0xbdd7c852	-0.10536255
192	0xbbe3a571	-0.0069472124
193	0x3de8dba7	0.1137002
194	0x3de18d3c	0.110132664
195	0x3d710cb9	0.058850024
196	0xbdb169b6	-0.08662741
197	0xbd75b810	-0.05998999
198	0xbdceecfb	-0.10103794
199	0xbe1b660c	-0.15175647
200	0xbe0baea9	-0.13640846
201	0x3e0db876	0.13839898
202	0x3d7b7295	0.06138857
203	0x3ddefefc	0.10888478
204	0x3e07b343	0.13251977
205	0xbdcf3641	-0.1011777
206	0x3ce06955	0.027393976
207	0xbd1267dd	-0.035743583
208	0x3da31135	0.07962266
209	0x3d87b354	0.06626001
210	0xbe2af2b5	-0.16694148
211	0xbde976c9	-0.113996096
212	0x3d80e75f	0.062941305
213	0xbdef4d3c	-0.11684653
214	0xbdfa9284	-0.12234977
215	0xbcfb18a5	-0.0306514
216	0x3e20306b	0.1564347
217	0xbdecf9f0	-0.11571109
218	0x3c95a1d4	0.018265642
219	0xbd80aa9d	-0.06282542
220	0xbca73439	-0.020410644
221	0xbe181d41	-0.1485491
222	0x3e2a85e9	0.16652645
223	0x3d8c2c5d	0.06844399
224	0x3e117bf4	0.1420744
225	0xbd51cb53	-0.051219296
226	0xbdd85906	-0.10563855
227	0xbb0f1fcc	-0.002183902
228	0x3e14bf21	0.14526035
229	0x3d957bec	0.07299027
230	0x3e21d74d	0.15804787
231	0xbe03f631	-0.12886883
232	0x3dc03fe4	0.09387186
233	0xbd554247	-0.05206516
234	0xbc8a22c3	-0.016862279
235	0xbda7246f	-0.08161246
236	0xbb84df8c	-0.004054969
237	0xbe1373e7	-0.14399682
238	0x3e126976	0.14298043
239	0x3e2312b5	0.15925105
240	0xbe29dd4f	-0.16588329
241	0xbdaa0871	-0.08302391
242	0xbd5a8bbf	-0.05335593
243	0x3df78bfe	0.12087248
244	0x3e1528d4	0.14566356
245	0x3d033792	0.032035418
246	0xbe0af92c	-0.13571614
247	0xbd5175df	-0.0511378
248	0x3d8fcc30	0.070213675
249	0xbdafd35e	-0.08585237
250	0xbcf15692	-0.029460225
251	0x3caeb3b5	0.021325925
252	0x3d9d3c98	0.07677573
253	0x3dfebee1	0.12438751
254	0xbe25478e	-0.16140577
255	0x3dc103d9	0.09424562
