gru_model.pt (torch, 53597 bytes, 11 tensors)

lstm.weight_ih_l0 f4 [96, 24]
00000000: 9607 713e 4804 1d3c 84bd d93d 79ac 4dbe
00000010: 56dd b43d 7160 003f 1308 b73e d8f0 9cbe
00000020: 6a01 bc3c 8f1d 983d 0a82 08bd e951 18be
00000030: f9d0 863e 742d 3f3d 2426 dd3d 9727 b03c
00000040: 9251 d83e 93cf 2a3e 06a6 e0bd 5660 19be
00000050: d67f 39bf 0617 c1bc 5e20 993e 956f a73e
00000060: 75b1 d93d 40f2 c53e 3be8 e43c f971 953e
00000070: 1cf7 843c 4346 afbe 02c1 b0be 16db d0be
00000080: 5fa1 aebe 9fe9 923e 04f3 cf3e 525e 74be
00000090: 3ad0 083e 6012 53be 39f8 4c3e 270f 043d
000000a0: 7178 373e 6031 bb3e 2c24 023f c8e6 bbbd
000000b0: 992f 6dbd f7e2 723d 7a9c 0f3b f5eb bfbe
000000c0: 3627 a33d 5427 49be 28f6 1bbd 2cb8 b7be
000000d0: 8102 743e 83d2 22bd a857 43bd 7e20 74bd
000000e0: b0d4 b0be 2ceb 95be 1ada 8e3e a7cd 943d
000000f0: 501b f43e fb9f 82be f38c b63d 4c67 79be
00000100: 3ab8 343e b73c 413e 2c5b d73d bd3f dfbd
00000110: f620 d53e d64f e43e d5f7 94bd 9373 0abf
00000120: 6fbf 2cbe a3d3 4e3e e413 92bd ca65 923d
00000130: fb22 983d d6f2 8f3e 3a81 5dbe f749 c1bd
00000140: 3641 36be 6746 a7be 167e 943e db2c f63d
00000150: 1838 4e3e 8d2d d73d af42 02be de69 bbbe
00000160: 8d2f 763e b287 9dbd e1b8 113e 54ea 00be
00000170: c3ab 6abe 1d0d 4d3d a53b 0c3e b894 ba3e
00000180: d075 92be 65dc 323e ae33 023e 57c0 44bf
00000190: aa70 e4bd 22d5 4d3d 6efd 06bf e885 453d
000001a0: 5af8 c03d 0aff ad3b 85dc bbbd af49 443e
000001b0: de36 743e 8735 56be 42ec ddbd 9530 3abd
000001c0: 0600 273e 6111 153f d3b8 1bbe 371a 35be
000001d0: 52f7 bd3e 5916 c13c 72e7 0ebe 52ca 3bbf
000001e0: 6025 033f 1d35 abbd 1cdb 983e 776a 33be
000001f0: 33b0 b7bd 7f9d f0be 88da 2b3e 3634 3c3e
00000200: 6c60 ca3e 9269 ed3e d563 29bd f5eb f23e
00000210: fd0c c9be becb 25be 0f1b e6be 431f 78be
00000220: 49d0 d63e 3bfc 03be 5379 8a3e 229e f03d
00000230: 4ebc e0bd dc83 c93e d38b b7be fba5 b6be
00000240: 5155 1ebf 1441 90be b4e6 2cbf 5794 2f3f
00000250: 564f 02be c1fb 193f d4f4 043f 9a17 213e
00000260: e796 07bf 8e19 acbe 4ccd e0bd d2ec 95be
00000270: e72b fa3c 9e50 29be 3033 613d e0da 54be
00000280: 6ffb adbd cfc5 133f 6da5 373e 85c2 bdbe
00000290: 7acd f4bd 3cd9 0d3d a0a2 2c3d 2152 94be
000002a0: 858d d6be 9567 643e 2e96 dbbd 25cd 41bd
000002b0: 5af0 d13d a245 043f 8e59 b33d f80a 4abe
000002c0: f871 02bf bda7 9c3d 3867 a1be a081 fd3d
000002d0: e735 98be 64eb f73e fe6e 823e a513 8fbe
000002e0: 6fbc 533d b7d1 cf3d 0a9d 403e f2bd 16be
000002f0: daf3 0dbe 60cb abbd 7d04 84be 9629 cebd
00000300: e05f d2be fb0e e03e 3598 afbd 5da8 943c
00000310: a8bc 553e 7ed8 5c3e a059 1f3e 1fae c03e
00000320: b3f1 99be 5d4c 993e abb4 023e bac7 33be
00000330: bdd0 7b3e 8c48 76bd de64 dc3d c413 603e
00000340: 2218 a8bd 0511 2a3e 811e 973e 7506 f03b
00000350: f3f8 c1bd d264 393e 67ff 89bd 76f6 e83d
00000360: 1d5f 75be 0ebd 24be 69b9 823e ad5b 983d
00000370: 9261 9abe 8d61 cd3d 3a30 393e 28c2 093d
00000380: c41d bdbe 007e 4dbe 4844 30bf daee 19be
00000390: 5e06 2fbc c86e 23bf 495b 13be 79f8 dabd
000003a0: 4812 57be 37e4 ec3e 9a07 833d 6d22 2e3c
000003b0: 074b ecbe 947b 7cbd e5fe 103e 10bb b53d
000003c0: e73c 4bbd 92ff acbd 1c5a a6bd 5d9d a3be
000003d0: daf2 d03e 0ea9 783e 04d8 08bf 1a1c a6be
000003e0: bb54 33be 3296 dd3e ae8e 5cbd 046b 683e
000003f0: 7127 8fbe 980f 82bd 7a56 ddbe be95 fc3d
0.2353805 0.00958354 0.1063185 -0.20085324 0.08831279 0.5014716 0.35748348 -0.306525
0.022949893 0.07427513 -0.03332714 -0.14874996 0.26331308 0.046674207 0.1079829 0.021503253
0.42249733 0.16680746 -0.109691665 -0.14978155 -0.7246069 -0.023570549 0.29907507 0.32702318
0.1062955 0.38661385 0.027942767 0.29188517 0.016231112 -0.34233293 -0.34522253 -0.4079215
-0.3410749 0.28693864 0.40615094 -0.23864105 0.13360682 -0.20612478 0.20016564 0.032241013
0.17917039 0.36561108 0.50836444 -0.091748774 -0.05790672 0.05929848 0.0021913336 -0.37484708
0.07966463 -0.19643909 -0.03807655 -0.358827 0.2382908 -0.03975154 -0.047691017 -0.0596013
-0.34537268 -0.29280984 0.27900773 0.072657876 0.47677088 -0.2551268 0.08913603 -0.24355811
0.17648402 0.18870817 0.105154365 -0.10900829 0.4162671 0.4459216 -0.07273833 -0.540826
-0.16869901 0.2019792 -0.071327 0.07148321 0.07428547 0.28114957 -0.21631327 -0.09437936
-0.17798313 -0.326709 0.29002446 0.12020274 0.20138586 0.10506735 -0.1272075 -0.36604208
0.24041577 -0.076918975 0.14230682 -0.12589389 -0.22917084 0.050061334 0.13694628 0.36441588
-0.2860551 0.17466886 0.12715027 -0.7685599 -0.111543015 0.050252087 -0.52730453 0.048223406
0.09422369 0.005309944 -0.0917292 0.19168733 0.23849055 -0.20918857 -0.10836078 -0.045456488
0.16308603 0.58229643 -0.15207224 -0.17685781 0.37102753 0.023570227 -0.13955477 -0.7335559
0.51228905 -0.0835974 0.29854667 -0.17521082 -0.08969154 -0.4699516 0.16782582 0.18379292
0.3952669 0.46369606 -0.041354973 0.47445646 -0.39267722 -0.16191003 -0.4494252 -0.24230675
0.41955784 -0.12889187 0.27045688 0.117489114 -0.10973416 0.39358413 -0.35848865 -0.35673508
-0.6184893 -0.2817465 -0.67539525 0.68585724 -0.12725577 0.6014977 0.5193608 0.1573166
-0.52964634 -0.33613247 -0.10976657 -0.29282242 0.030538512 -0.1653466 0.054980457 -0.20786619
-0.08495223 0.57723707 0.17934199 -0.3706247 -0.11953254 0.034631 0.04214728 -0.2896891
-0.41904846 0.22305138 -0.10722004 -0.04731478 0.102509215 0.5166875 0.087573156 -0.19730747
-0.5095515 0.07649181 -0.31524062 0.1237824 -0.29728624 0.48421776 0.25475305 -0.27944675
0.051693376 0.10147422 0.18809906 -0.14720896 -0.13862553 -0.083884 -0.25784674 -0.10066526
-0.41088772 0.4376143 -0.08573953 0.018146688 0.20872748 0.2156696 0.15561533 0.37632844
-0.30067214 0.29941073 0.12764232 -0.17556658 0.24591346 -0.06012778 0.107614264 0.2188254
-0.08207728 0.16608055 0.2951546 0.0073249885 -0.094713114 0.18104866 -0.06738167 0.11375134
-0.23962064 -0.16087744 0.25532082 0.07439361 -0.30152565 0.10028372 0.18084803 0.033632427
-0.36936772 -0.20067596 -0.6885419 -0.15032521 -0.01068267 -0.63840914 -0.14390291 -0.10691924
-0.21003067 0.46267864 0.06397934 0.010628325 -0.4615099 -0.06164129 0.14159735 0.0887357
-0.049618628 -0.08447184 -0.08122656 -0.31955996 0.4081028 0.24283239 -0.53454614 -0.32443315
-0.17512791 0.43278652 -0.053847007 0.22697073 -0.2795978 -0.063506305 -0.4323004 0.123332486

lstm.weight_hh_l0 f4 [96, 32]
00000000: 70cc d5bd 8ae5 4b3d d39e 1f3e fdb6 6e3d
00000010: 7daf 1ebe 796a acbe 2b2c 793d dcd5 e4bd
00000020: 4dd3 d63d 8922 81bc 4295 d63d 909b 323e
00000030: 6eb8 623d e3f2 40be f11f 84be 1092 d53d
00000040: f60e 103e 066b 9dbd 786b 13bb 1bc3 413e
00000050: e433 893c bd8a 70bd cdf9 9b3e ad62 1abd
00000060: e12c 4d3e b363 37be 671f 733e 0bb8 303d
00000070: 323e 983c 6c65 193f 41a1 e8be c612 c5bd
00000080: bd95 2dbe b07b afbb 22a0 2a3c 14e4 49bb
00000090: f36e ee3e 543a 88bc 1c97 cf3e e09f 023e
000000a0: a3b1 2bbd be9a 133e fb18 a13d f7fb 2ebe
000000b0: 5e52 253b 5703 6ebd a301 943e 1123 013f
000000c0: 4f6d a6be 999c 05bf ec53 e43d ce37 db3e
000000d0: c9e8 47be 1cf2 343d 177a 6d3e 9ddc 1d3f
000000e0: f4aa 08be 9842 5ebe 3d88 cd3e 7d36 d1bd
000000f0: a8fc 063f 556d 6a3d 1283 bfbc c4c1 b6be
00000100: 7b7c ac3d c4c5 c23e 9b95 f8be 082e f53d
00000110: d5af 293f e475 b9bd 4197 ab3e 5a72 033e
00000120: b8c1 063d 7678 2f3e 082a 22bb 350d ce3d
00000130: be10 213c 9d9f 8fbd d615 4ebe 9bda 54be
00000140: a116 2fbe 49c8 863c b3c8 85be 56f0 5c3b
00000150: 3c63 4b3e 6c81 6cbe 1875 003d cf92 9a3e
00000160: d569 bbbc 676a a73d 058f c33d 2122 e63e
00000170: d779 92bd 4b1b e53d c9f6 403e 8219 a5be
00000180: 9476 443e 05f8 683e fc12 283c 0d30 b53d
00000190: 85ca 823d cc30 b0be 4db5 603e a163 91be
000001a0: 253f 4d3e de8b c1bd 7331 453e 26e4 9c3c
000001b0: bba2 813d 2e96 a83d cf84 68be d8d1 9bbe
000001c0: b06d 3f3e aa87 b2bd 9c5e 2f3e fb4f 9d3e
000001d0: 52a5 9abd 8865 583d f9ef 1d3e 298b 81bd
000001e0: aa3c 183e 80f9 cdb8 d493 d3bd 8da7 bc3d
000001f0: b857 fa3c fe94 b63e 4d4e 66be a5f1 26be
00000200: 48c1 5d3e 620c d63e c56a 0abe 2510 9e3e
00000210: 594f 6a3f 84d3 e6bb f89d 15bd 6438 11bd
00000220: 0d56 f73b 02a8 0e3f f582 5fbe be29 84bc
00000230: 95d4 d13d b9b1 293d cd3d 9dbe 8bda 52be
00000240: e8d0 8b3e 9911 c83e b9c1 88be 2005 a4bc
00000250: 0f18 7a3e 1b32 99be 3d41 2fbe aac2 823e
00000260: e77d cfbe 7b88 57bd 280a a23e 8a94 a13d
00000270: 2eaf 9ebe 21f8 8abe 0bcf f23e a2bc 13bf
00000280: 6f52 50be 1dcb d6bd 0bab ec3e 7e64 bdbc
00000290: fdb9 4cbf c23e 31bc 16b6 92be 59f9 843e
000002a0: f1d4 6cbe 0782 5ebe 736e d03e f581 87bd
000002b0: e535 1fbd 38d7 1cbf 5c03 9b3d 0e6d 813e
000002c0: 407b e63e 947e 06bf c3fb 063d 4fd1 61bf
000002d0: 8681 fcbe 70e8 f53d b5bc dc3e 872c 033f
000002e0: d1c6 d43e af1f 2bbd ed90 2ebe 2475 4f3e
000002f0: 9ca3 99be 167c 3e3f 8ea0 9fbd af58 01bf
00000300: 704f b13d 0836 b13e 7b91 543d 1fee 00be
00000310: 41b4 2e3d 28f0 04bf b210 5cbd 4095 283e
00000320: 77da 953e 04da e5be aa53 46be 3d86 b5be
00000330: e3bf b23e 40e9 373d 87a6 b2bd 473c 68be
00000340: 762f cc3e 7b0d 1d3f 150e 53be f1c0 2bbf
00000350: 5455 1d3f 270c 1fbd bb45 59be 7f28 63be
00000360: 038e 0f3c 5d7c d83d 5d63 573d a57a c53e
00000370: 5462 ccbe c00b 263d 031b 3bbe 3283 963d
00000380: 96db b0be d7b6 84be 5d57 693e dcf5 1cbe
00000390: 61cf 14bf c139 a43e 5330 1a3e c4a5 6cbe
000003a0: e292 cf3d b200 efbd b11f 2c3f d715 ed3e
000003b0: a014 b8be fcc8 21be 2721 ac3e a521 703e
000003c0: 5697 5cbe 6da7 f5bd b683 df3e 5a9c f8bd
000003d0: e15d 84be e667 db3e ec10 863e 388d d03e
000003e0: 2994 523e af6a b4be 8150 ca3d 5a84 c4be
000003f0: dc4c 2e3d 0184 123d ad12 05bf 4d6a 42bd
-0.10439384 0.049779452 0.1558793 0.05827998 -0.15496631 -0.33674982 0.060833137 -0.11173603
0.10489521 -0.015763538 0.104776874 0.17442155 0.055351667 -0.18842654 -0.2580562 0.1042825
0.14068207 -0.07686429 -0.0022494476 0.18922083 0.016748376 -0.05872606 0.3046402 -0.03769176
0.20036651 -0.17909126 0.23742448 0.043144267 0.018584345 0.5992038 -0.45435527 -0.096227214
-0.16951652 -0.005355321 0.010414155 -0.0030806111 0.46569023 -0.016629376 0.40544975 0.127563
-0.041917454 0.14414498 0.07866093 -0.17088304 0.0025226097 -0.058108654 0.289075 0.5044413
-0.3250527 -0.52192074 0.11148819 0.42816013 -0.19522394 0.044176206 0.23191105 0.61664754
-0.13346463 -0.21705091 0.40143004 -0.10215471 0.5272927 0.057233173 -0.023377929 -0.35694706
0.0842218 0.38041508 -0.4855164 0.119716704 0.66283923 -0.09055689 0.33513835 0.1283659
0.03289959 0.17135796 -0.002474429 0.10061113 0.009830652 -0.07012866 -0.20125517 -0.20786516
-0.17098476 0.016452925 -0.26129684 0.0033712587 0.19862074 -0.23096246 0.03136167 0.3019013
-0.022877613 0.081745915 0.09548763 0.44947913 -0.07152145 0.11186846 0.18844141 -0.32246023
0.19185859 0.22750862 0.0102584325 0.088470556 0.06386284 -0.3441223 0.21944161 -0.28396323
0.20043619 -0.09450506 0.19257145 0.019151758 0.063298665 0.082317695 -0.22706912 -0.30433536
0.18694186 -0.08717282 0.17125934 0.30725083 -0.075510636 0.052831203 0.15423574 -0.06325371
0.14866892 -9.821635e-05 -0.1033093 0.09211645 0.030559406 0.35660547 -0.22490807 -0.16303118
0.21655762 0.41806322 -0.13517292 0.30871692 0.91527325 -0.0070442576 -0.036527604 -0.03545417
0.0075481 0.5572511 -0.218273 -0.016133185 0.10245625 0.041429255 -0.30711213 -0.2059118
0.2730782 0.39075926 -0.267103 -0.020021975 0.2442324 -0.2992104 -0.1711473 0.25539142
-0.40525743 -0.052620392 0.31648374 0.0788966 -0.30993026 -0.27142432 0.47423586 -0.57709706
-0.20343946 -0.104879595 0.46224245 -0.023119207 -0.79971296 -0.010818185 -0.28654546 0.25971487
-0.23128106 -0.21729289 0.40709266 -0.06616584 -0.038869757 -0.612659 0.07569 0.25278515
0.45015907 -0.5253689 0.032954942 -0.88210005 -0.4931757 0.120072246 0.43112722 0.5123982
0.41557935 -0.041778263 -0.17047472 0.2025953 -0.30007637 0.7440809 -0.07794295 -0.50525945
0.086577296 0.34611535 0.051896553 -0.12590836 0.042652372 -0.5192895 -0.05372686 0.16463184
0.29268238 -0.44892895 -0.19367853 -0.35453978 0.34912023 0.04490018 -0.08723169 -0.22679244
0.3987996 0.61348695 -0.2061084 -0.6709128 0.61458325 -0.03882995 -0.21218006 -0.22183417
0.008761886 0.105705954 0.052584995 0.38570133 -0.39918768 0.04053855 -0.18272023 0.07349242
-0.3454253 -0.25920746 0.22787233 -0.15328163 -0.58128935 0.32075313 0.15057497 -0.2311011
0.101354375 -0.116700545 0.6723586 0.46305725 -0.35953236 -0.15799326 0.33619043 0.23450334
-0.21542105 -0.119948246 0.43655175 -0.12139197 -0.25852874 0.42852706 0.26184785 0.4073274
0.20564331 -0.35237643 0.09878636 -0.38382226 0.042553768 0.03577042 -0.5198162 -0.047464658

lstm.bias_ih_l0 f4 [96]
00000000: be69 8ebe 8c45 3abf 6a0c b2be db0a 1bbe
00000010: 7996 c9be 0c9e 81bd 0611 39bc 9f98 e9be
00000020: 72d1 b5be 42ac 9a3d ff69 a5bd 58c0 21bf
00000030: 0c5f 93be bca7 2ebe 5667 40bf 21c6 c4be
00000040: cc9e 2bbe 251c a83e e042 aebe 8af3 61be
00000050: cc73 debe a9e0 38bf 1c1f 98bd fa5f b0bd
00000060: da0e 75be fdc9 36be 0972 d3be 9f57 6abe
00000070: 1d4f 043e 507c a5bd b40a fabe 2e1f 5cbe
00000080: db0a 05be eb9f 353e 7cbd d93e b26b 643d
00000090: 716f fabd d68b 2fbf ce49 b73e 8a7f 323f
000000a0: 584c b83e 70ee 6bbe 516f ee3d 33fe b93e
000000b0: 30ba 2c3f 5485 c23e ca98 d9bd 697e 90bd
000000c0: 4d68 273f 5f5c 47be 76a1 453e 2e2e 913d
000000d0: a408 ab3e 9092 b13e a240 e53e 1657 333f
000000e0: 027a a53e 46e5 843e 60e2 243f 08aa 253f
000000f0: 1945 0d3f 72ec 1c3d 963d 623f ee80 7e3e
00000100: f4f6 53bd 7939 493e e64b 1cbe 67c6 63bd
00000110: 3d6c 243e c2a6 fabd 72f3 393c 10d7 fcbc
00000120: 512c b93c 260f ad3d 05a1 35be ef4a 87bd
00000130: 2975 f6bc d087 adbc b278 16be d5e7 31be
00000140: b389 ec3d 5807 d53c dfe2 03bd 8741 aabd
00000150: 898b b93d 7db4 92bd b7ee dc3c 1cc7 2e3c
00000160: 9615 083d 85f2 363d 4b9a a4bc 4fb2 e2bc
00000170: 0371 b7bd df6b c7bd d574 83bd 1dc0 49bd
-0.2781505 -0.7276237 -0.34775096 -0.1514086 -0.39372614 -0.06328973 -0.011295563 -0.45624253
-0.35511357 0.07552387 -0.08076858 -0.6318412 -0.28783453 -0.17056173 -0.7515768 -0.3843241
-0.16759795 0.32833973 -0.34035397 -0.22065559 -0.4344772 -0.72217804 -0.07427809 -0.08612056
-0.23931447 -0.1785049 -0.4129794 -0.22884987 0.12920804 -0.08080351 -0.4883629 -0.21496269
-0.12992422 0.17736785 0.42527378 0.05576677 -0.12228287 -0.6857275 0.35798496 0.6972586
0.35995746 -0.23040175 0.11642326 0.3632675 0.674716 0.37992346 -0.10624845 -0.07055361
0.65393525 -0.1946883 0.19299874 0.07088886 0.3340503 0.3468213 0.44775873 0.7005476
0.32319647 0.25956172 0.6440792 0.6471257 0.5518356 0.03831143 0.8837522 0.2485387
-0.051749185 0.1965083 -0.15263328 -0.055609133 0.16056915 -0.12238838 0.011349546 -0.030864269
0.02260414 0.08450155 -0.17737205 -0.06606089 -0.030085163 -0.021182925 -0.14694479 -0.17373593
0.115497015 0.026004478 -0.032198783 -0.083132796 0.09059817 -0.07163332 0.026969297 0.010667589
0.03322371 0.04466488 -0.020093104 -0.027672915 -0.08957102 -0.09737372 -0.06418768 -0.04925548

lstm.bias_hh_l0 f4 [96]
00000000: 7c00 24be 7be4 1fbf d047 81be 2976 61be
00000010: cecf d8be bcf2 3dbe acba 57bd 53e6 c6be
00000020: dec7 5ebe b101 bdbd 1488 07bd f626 0abf
00000030: 46ea a1be 59c2 afbd 3e52 44bf 4d80 bbbe
00000040: 73bf debe a772 dd3e ee3f a6be 847d 8abe
00000050: 908b c2be 6591 1bbf 8c7f 90be 6b54 98bd
00000060: 1a51 69be 0960 02bc a08c 63be ba07 4ebe
00000070: f78a be3d 4fff d1bc 6023 b0be 1695 b7be
00000080: 0169 523e 3623 863e f872 e73e 60f2 45b9
00000090: 528f eabd 6f0f 2bbf 7e33 1e3f c406 e13e
000000a0: 9b04 c63e e94c 123d 895a 9b3e b48b e03e
000000b0: 6a31 383f 9019 8d3e be1d b6bd 0e60 f73c
000000c0: 7a45 d23e f550 a23d d6c1 c13c d26d a6bc
000000d0: 138b 8a3e fe33 013f 7f3a b93e 419a 133f
000000e0: 3d0c 113e 22f0 8a3e 9d78 443f d5ec fe3e
000000f0: 63c9 8f3e 58e6 5fbc c3c8 6a3f 843e 873e
00000100: 3aee 85bd 6714 fd3c 91c2 183d 3f68 a1bd
00000110: 4477 ca3d 9202 a9bd 64c8 a33c 1698 e23d
00000120: d54e 61bd bddd 823e 08f5 a7bd 7553 52bd
00000130: 05ad 143e d10e 273e 38f4 4cbe 1b41 0dbe
00000140: 7806 d13d fc4c 8f3d ffa0 71bd b5d8 43be
00000150: 215f 5e3e 0d67 24be b351 46bd e5ed ccbd
00000160: 2fc1 653e c941 273d 9967 28bd 1e9c 013d
00000170: 8622 ee3c d805 c1bd ff50 7cbd 2fc6 78be
-0.1601581 -0.6245801 -0.252501 -0.22017731 -0.42346042 -0.18549627 -0.05266826 -0.38847598
-0.21755931 -0.09228838 -0.03308876 -0.539657 -0.3162405 -0.08581991 -0.7668799 -0.36621323
-0.4350544 0.43251535 -0.3247065 -0.27048886 -0.37997103 -0.6076873 -0.2822231 -0.074379764
-0.22784844 -0.007957467 -0.22221613 -0.20120135 0.09303849 -0.025634436 -0.3440199 -0.3585593
0.20547868 0.2619874 0.45204902 -0.00018877676 -0.114531174 -0.66820425 0.6179732 0.43950474
0.3867539 0.03571788 0.3034251 0.43856585 0.719504 0.27558565 -0.088923916 0.03019717
0.4106863 0.079255976 0.023651998 -0.020316038 0.2705923 0.5046996 0.3617744 0.5765725
0.14164825 0.27136332 0.7674654 0.49790064 0.28083333 -0.013665758 0.9171259 0.26414883
-0.06539579 0.030893518 0.037294928 -0.078812115 0.09886029 -0.082524434 0.019993015 0.11064164
-0.05500682 0.25559798 -0.08201033 -0.051349122 0.14519127 0.16314246 -0.20015037 -0.13794367
0.10206312 0.069971055 -0.05899143 -0.19125636 0.21715976 -0.16054936 -0.04841776 -0.10006312
0.22436975 0.040834222 -0.041114423 0.031643026 0.029069196 -0.09424943 -0.06160068 -0.24294351

lstm.weight_ih_l1 f4 [96, 32]
00000000: 24d4 ec3d 17bb a4be 2b41 a03d 01d6 483e
00000010: 7d8a c1bc 6c8e 4d3e 06ee 38be f786 a13e
00000020: 48e3 3d3d fd61 b1be e906 c7be 2d86 06be
00000030: cd3d 203e 9b28 16bd 83a5 a03d 17c4 c3bb
00000040: e92e 483e 4a9f 323e 64c0 d0bc c76f bfbe
00000050: cfc0 c73e e304 79be 7381 88be 88a9 97be
00000060: c77e ff3c 1245 183e 3388 5ebe a74f 91bc
00000070: 0739 87be 44fe ba3e ce1b fb3e ab6c 863e
00000080: 4106 8c3e f428 19bf f756 2c3e af31 b93d
00000090: 3271 e0bd 9509 b03e cf8c 8abe 4358 b73e
000000a0: e89d 7ebd ec14 44be 35c8 b8bc be3f b6be
000000b0: 0f6a 783d e129 043d 9672 9b3e 72a6 b43e
000000c0: 5035 843e 914b cf3d 5234 a13e 0a31 48be
000000d0: 38e0 523e 86d5 c3bd ddd5 52be b901 b33d
000000e0: 52ff d4bd 317a 4ebe c319 02be 6f79 0dbe
000000f0: d05b 81be f2b8 2e3d fc17 a53e 2f1c 5b3e
00000100: f9d6 743c c61b b83d f1ff ef3e 2a0b 343c
00000110: 6696 95be 1cee 7bbd f820 f13d 64b4 3dbe
00000120: c822 29be e050 373e 5a03 523e 94fc 3fbe
00000130: 4b13 51bd 22bf 34be f35c 8a3d 8370 7f3e
00000140: baa4 7c3e f12d 163e 68e0 d7bd 2b82 4abe
00000150: 3fdf dabd f51d 823e 83c6 76be 2c6b e63c
00000160: f613 5c3d 92c9 7ebc 3801 3cbd a309 eebe
00000170: 610c 56be cb63 f93b 88f8 62bd 4668 773e
00000180: 5ac2 3ebd d9e6 7dbe fe26 9ebd 6d90 413e
00000190: 1bf5 47bc bc82 0b3e e6d1 463e 4078 a5be
000001a0: 4a30 6d3d c214 35be 49a1 9f3e 7a68 a33d
000001b0: 8063 92bc fb65 8a3e 44a1 90bb 44ae d53d
000001c0: 487c 48bc d48a 67be a9b3 8b3e 5efb 45be
000001d0: 44e3 51be 1972 013f 0d3b 953d 13de 2a3e
000001e0: 6c8b 76bd f272 91be 853f a9bd d679 013d
000001f0: 5d44 603d 4d73 de3d d89a fdbd 9ea4 b6bd
00000200: 81a3 69bc 6e00 22bc 026b 14be 02ff afbd
00000210: d753 0d3e f73c 15be f145 77be fc2f 6e3d
00000220: 750a 31be abfd 2dbe a86b 22bd 3f37 373e
00000230: 0009 083e 66bf 673d e04f fdbd 77b2 03be
00000240: 508c 0bbd 3118 da3d 12d0 6c3e aeb5 c93c
00000250: 689c b13d 3919 acbe d9e7 71be 1123 383e
00000260: efce b4bd 6ecf 2f3e e401 18bd c164 dcbd
00000270: 9849 a1bd dcdb 153a eb19 1abe 4cbe c03c
00000280: f47e ec3c b551 dabd 80ff 6f3e fbb6 d03d
00000290: bb05 a1be 53c4 a5bd e265 243e c89c 2c3e
000002a0: c864 c3bd e86a fa3d c9f5 023e f619 48be
000002b0: d831 5c3d 95c4 4e3e 42d6 8b3e 4fac c53d
000002c0: 42e9 8a3e 3890 cd3b bee0 1abe 6f29 efbe
000002d0: afa4 ef3d 4f6b eabd 7976 d7bd bec5 803d
000002e0: b7b0 38bd 3758 22be 0a7e 933d 84d2 163e
000002f0: dea5 e3bc 8f14 dd3c 5798 373e 4df5 4fbd
00000300: 54ce adbc 68ec 64be 3078 6bbc da50 26bd
00000310: 35bd 38be 12b8 ac3e f354 933d 0d52 583e
00000320: 36b9 8dbe a62e 0cbe e30c 783e 68b2 e73d
00000330: 8521 c23b e33e 8fbe c516 29bc a785 693d
00000340: a261 06bf a570 b0bd 8bfd 553e 0d54 a0bd
00000350: 34a7 abbd bddc b53e 2a94 5d3e b461 8c3e
00000360: f7ce 1bbe 1aea 73be 300b 1dbe 29af e9bd
00000370: 9714 bb3d fd05 1a3e 5369 ba3c 6a23 f03d
00000380: 4575 dfbc 9c67 623e c451 863d b055 ca3d
00000390: 6617 273e b492 f3be 0146 b1be c5e9 ca3e
000003a0: 754b 993d a1ca f93d 9941 38be f816 17bf
000003b0: 0677 d9bb bf78 19be 70d6 97bd 3d4a 093c
000003c0: 8c32 083e f066 d93c 5117 883d 1e79 8bbd
000003d0: a75f d43e ed30 ca3e dc07 c5bd 4c45 f13e
000003e0: e515 a83d fb2e 0f3d 3a23 bebd 0c1b abbe
000003f0: ec5e 193a 4ff9 953e 6f52 97be 3dfb cd3d
0.115639 -0.32173988 0.0782493 0.19612886 -0.023625607 0.20073861 -0.18059549 0.31548283
0.04635933 -0.34645072 -0.3887246 -0.13137121 0.15648575 -0.03665982 0.07844069 -0.0059743035
0.19549145 0.17443576 -0.025482364 -0.37389967 0.3901429 -0.2431827 -0.26661262 -0.2962153
0.031188382 0.14870098 -0.21731643 -0.017738177 -0.26410696 0.36522114 0.4904465 0.26254782
0.2734852 -0.59828115 0.1683005 0.090426795 -0.1095909 0.3438231 -0.27060553 0.35809526
-0.06216231 -0.19148606 -0.022556404 -0.35595506 0.06064802 0.0322665 0.3036086 0.35283238
0.25821924 0.10121835 0.3148523 -0.19549957 0.20593345 -0.09562211 -0.20589395 0.08740563
-0.10400261 -0.201638 -0.1270514 -0.13815854 -0.2526536 0.042656846 0.3224486 0.2139747
0.014943832 0.08989672 0.46874955 0.01098899 -0.29216307 -0.061506376 0.117738664 -0.18525845
-0.16517174 0.17901945 0.20509091 -0.18748695 -0.05104379 -0.17651036 0.0675601 0.24945264
0.24672213 0.14665963 -0.10540849 -0.19776218 -0.10687112 0.2541348 -0.24099164 0.028127275
0.053729974 -0.015550988 -0.0458996 -0.46491727 -0.2090316 0.007610773 -0.0554128 0.24160871
-0.046572067 -0.24795093 -0.07722281 0.1890275 -0.012204434 0.1362409 0.19416007 -0.32318306
0.05790738 -0.176837 0.31177738 0.07978912 -0.01786971 0.2703093 -0.0044137556 0.10433629
-0.012236662 -0.22611552 0.27285507 -0.1933417 -0.20496851 0.50564724 0.07286654 0.16686277
-0.060191557 -0.2840801 -0.082640685 0.031610332 0.054752696 0.10861836 -0.1238305 -0.08918117
-0.014260174 -0.009887798 -0.14493945 -0.08593561 0.13801514 -0.14574037 -0.24147774 0.05815123
-0.17289145 -0.16991298 -0.03965345 0.17892168 0.13284683 0.056579016 -0.123687506 -0.12861048
-0.03406936 0.106491454 0.23126248 0.024622764 0.0867241 -0.33612993 -0.23623599 0.17982127
-0.08828532 0.17168972 -0.037111178 -0.10761405 -0.07875365 0.00057166605 -0.1504895 0.02352824
0.02886913 -0.10660116 0.2343731 0.10191151 -0.31449685 -0.080940865 0.1605449 0.16856682
-0.09540707 0.12227422 0.12789072 -0.19541153 0.053758472 0.20192178 0.27311903 0.09652006
0.27131087 0.0062732957 -0.15124795 -0.467113 0.11701333 -0.11446249 -0.10520644 0.06287716
-0.045090403 -0.15853964 0.072017744 0.14728743 -0.027789053 0.026987342 0.17929207 -0.050771046
-0.021216549 -0.22355807 -0.014371917 -0.04060445 -0.18040927 0.33734185 0.07193937 0.2112505
-0.27680367 -0.1368967 0.24223666 0.11313325 0.005924406 -0.27977666 -0.01032037 0.057012226
-0.52492726 -0.08615235 0.208975 -0.078285314 -0.08381501 0.35519972 0.21638551 0.27418292
-0.1521567 -0.23819771 -0.15336299 -0.11410362 0.091347866 0.15041347 0.0227553 0.11725505
-0.027277598 0.22109836 0.06558564 0.09879625 0.1631752 -0.47572863 -0.3462372 0.39631477
0.074850954 0.121968515 -0.17993774 -0.5901942 -0.006636503 -0.14987467 -0.074139476 0.008379516
0.13300532 0.026538342 0.06645072 -0.06810211 0.41479227 0.39490452 -0.0962064 0.47123182
0.08207301 0.034956913 -0.09284063 -0.33419073 0.0005850631 0.2929177 -0.2955508 0.100576855

lstm.weight_hh_l1 f4 [96, 32]
00000000: 5e37 0dbe eb66 2dbe 1eeb 38be b839 e3bd
00000010: 32ba 203d 579f 053e 1880 6a3e 1d6b fc3e
00000020: 1775 483e 8f00 6fbd 16ed 953d 4229 27be
00000030: 26f4 8bbe 4704 d03e 83a3 7cbd 550d 60bd
00000040: 4ea7 103e 9cce ec3d 6a6c 2c3e 54b2 983e
00000050: ed5d 843e 98a3 bd3d a3f5 a13c 0624 1b3e
00000060: 6adc 92be 0d66 4ebd 8102 593e 7c78 8bbe
00000070: 84a6 353e c8d9 03be 0f76 0a3d ae0d 303d
00000080: 3ff7 88be 52c5 e8be 3e8a 5bbe ee99 d2be
00000090: 4273 a33c 9795 833e 7415 b6bc 6890 0d3f
000000a0: 868b ee3d f9ee 353e 1393 d93d 7cc2 223e
000000b0: 867a 58be 0ab1 433e fd01 87be 6807 553e
000000c0: 0544 0a3d f1a8 c73e 8009 20bc 350f 313e
000000d0: 78c6 453c 438d 0ebe 5103 333d 2fdf 573e
000000e0: baa5 653d f046 53bc 9ddd 993c f4cb 88be
000000f0: 607f 253e 6613 8dbe cda0 2e3e 9fec d33e
00000100: ad69 57be 129e 91be f523 15bf 84b1 80be
00000110: abfb 633e 9d78 db3e 78dd 873e 6b22 d73e
00000120: 6cb9 b73e 0cc5 783d 4513 3bbd 9646 33be
00000130: d57b e3bc 1316 353e 5c6a 04be 2960 c33e
00000140: a80a 6d3e 1caf 103e e07b 013d 8ea5 2bbe
00000150: 84fa 293d 4799 6dbe da4c e8bd 3e5e 74bd
00000160: 3a5f b13d 1a65 ef3d e80d ee3b f9f2 0bbe
00000170: 909f 2abd bfa9 98be 5a0c 933c f528 8c3e
00000180: 4d2b 69be cb19 95bd fc5d e3bd 9da6 3fbe
00000190: 38cf 0f3e 340a ba3d 97cd bd3d b27e 3c3e
000001a0: 4ccf 75be 9577 07be c8fd a83e ae6e ce3d
000001b0: db67 413d 1e39 5b3d e78e 3dbe e884 073f
000001c0: ed01 033e 502d 043e 4aee fabd 0b24 30be
000001d0: 4484 8e3d a66e 2dbe 09a9 713d a6a3 99bd
000001e0: c8cc 8e3d 9415 63be 193c a6be 4f6c 9d3c
000001f0: 6261 c33d a19f 06be 1bab 573e 7264 953e
00000200: dceb 20be fcf0 a43d 0432 323e d956 11be
00000210: 55d2 26be 6461 24be fb49 dbbc 8773 83bd
00000220: 542c 23be 0cbf 833e ee95 9f3d 9889 7a3e
00000230: f896 fd3d 78f8 05be 6166 a03c 2423 91bd
00000240: 4ee6 aa3d a6b0 a13c 8999 19be a28b 673d
00000250: 4c94 893e f5e1 88be b8f4 a5bd cc22 d73d
00000260: bde6 b33d cb99 63be 79bf 213e aef4 8abd
00000270: 291b 963d a0ed 1ebe 679c 0bbe 1275 d9bc
00000280: 5f1f 273e 8571 e9bd 0363 933d 7857 f03c
00000290: 161d d53d 64be b83c a266 08be 3bf7 83bc
000002a0: fc43 203e 89ce b5bd 38ee bcbe d379 0a3d
000002b0: 5973 b4bd 686e 563d b5c3 b8bd 92a7 cd3e
000002c0: 18d8 b03d 17fd 423e f51e 6f3e 8267 a7be
000002d0: 4cb9 aebe d4cf f83d 892a 143e 1b8b 803e
000002e0: 4b47 863e ab02 afbc 2f7e bfbd 6069 40be
000002f0: 9c94 ab3d 9244 e0be 5e77 d0bd 2935 2c3e
00000300: 3bed 2a3e 4f69 d8bd 2530 cb3d 95b4 153e
00000310: 2ba9 49bc c338 b9bb e01a 9c3d d4cf 4b3e
00000320: 1b7a b4be 22a4 0d3d e634 5c3e 3aa4 84bd
00000330: 554c ee3c a39d ca3c 9fb5 0e3e 6bdc 913d
00000340: b454 d1bd 1cee d13e 20df 2d3e 8734 193e
00000350: c6a7 9e3e 0870 76be a38d 45bb 0e84 f63d
00000360: f016 55be 7250 c8be 4712 90bd bdc7 94be
00000370: 80d5 fd3c 8efc 603d 1ed7 983e 6baa eb3d
00000380: 1a46 cd3e f205 09bf ee51 34be d20a e0be
00000390: 2661 e53d 4a04 1b3f 57f3 aa3e c636 493f
000003a0: 45ca 6dbe b2f0 58be 1b3c e43e 150d 38bd
000003b0: 1c5f 4ebe 263b 253d 3b6f 113e 6baf af3e
000003c0: eefd c53c 90ee 0b3f 1721 993e 78f2 c03e
000003d0: 931c 8d3e 64d3 76be cc44 e1be 9bd4 653d
000003e0: a0d7 70be 311d dabe b8df b6be 9bc9 81be
000003f0: e455 93bc f532 07be fe6b 043f 2b08 bf3e
-0.13790652 -0.16933791 -0.1805844 -0.11094993 0.03924007 0.13049065 0.22900426 0.4930047
0.19575916 -0.058350142 0.07320611 -0.16324332 -0.27334708 0.40628263 -0.061679374 -0.054700214
0.14126322 0.11562845 0.16838232 0.29823554 0.2585291 0.09259719 0.019770449 0.1515046
-0.28683788 -0.050390292 0.21192361 -0.2724036 0.17739302 -0.12876046 0.033803996 0.042981796
-0.26751134 -0.45463043 -0.21439454 -0.41133064 0.01995242 0.25700065 -0.022227027 0.5529847
0.11647706 0.17766942 0.10623755 0.15894502 -0.21140489 0.19110504 -0.26368704 0.20803607
0.033756275 0.3899608 -0.00976789 0.17290957 0.012071244 -0.13921075 0.043704335 0.21081232
0.056066252 -0.012895331 0.018782431 -0.26718104 0.16161871 -0.27553862 0.17053528 0.41391465
-0.21036406 -0.2844091 -0.5825799 -0.25135434 0.22263972 0.42865458 0.26536155 0.42018446
0.35883653 0.060734794 -0.045672674 -0.17507395 -0.027769009 0.17684202 -0.12931198 0.38159302
0.23148596 0.14129299 0.031612277 -0.16762373 0.041498676 -0.23203002 -0.11342783 -0.05966019
0.08660741 0.116892055 0.0072648413 -0.13666905 -0.041656077 -0.29817006 0.017950226 0.27374998
-0.22770424 -0.0728031 -0.111019105 -0.18715902 0.14043891 0.09083977 0.09267729 0.18407705
-0.24004859 -0.1322921 0.3300612 0.10079704 0.047218185 0.053521268 -0.18511544 0.52937174
0.12793703 0.1290791 -0.12252481 -0.1720125 0.069588214 -0.1693674 0.058999095 -0.075019166
0.06972653 -0.221762 -0.32467726 0.019216685 0.09540059 -0.13146831 0.21061365 0.29178196
-0.15714973 0.080537766 0.17401892 -0.14193286 -0.16291173 -0.16052777 -0.026768675 -0.064185195
-0.15934879 0.25731695 0.07792269 0.2446655 0.12382311 -0.13083065 0.019580068 -0.07086781
0.083447084 0.019737553 -0.14999975 0.05652965 0.26870954 -0.26734892 -0.08103317 0.10504684
0.08784244 -0.22226636 0.15795697 -0.0678495 0.07329399 -0.15520334 -0.13633882 -0.026545081
0.16320561 -0.11398605 0.07196619 0.029338583 0.10405938 0.022551723 -0.13320401 -0.0161091
0.15650934 -0.08877284 -0.36900496 0.033807587 -0.08811063 0.052351385 -0.09021703 0.40166909
0.086349666 0.19041859 0.23351653 -0.32696158 -0.34125745 0.12149015 0.14469351 0.2510613
0.26226267 -0.021363577 -0.093502395 -0.18790197 0.08377954 -0.43802315 -0.101790175 0.16817154
0.16692059 -0.10566961 0.09921292 0.14619668 -0.012308399 -0.0056525185 0.076223135 0.19903499
-0.3524941 0.034580357 0.21504554 -0.06476636 0.029089132 0.02473337 0.1393647 0.071221195
-0.10221234 0.41001976 0.16979647 0.14961444 0.30987376 -0.24066174 -0.0030144237 0.12036906
-0.20809531 -0.39123875 -0.07034736 -0.29058638 0.030985594 0.054928355 0.2985162 0.11507114
0.40092546 -0.53524697 -0.17609379 -0.43758255 0.1120017 0.6055342 0.3338878 0.785992
-0.23221691 -0.21185568 0.44577107 -0.04493435 -0.20153469 0.04033961 0.14202587 0.3431352
0.024168935 0.5466089 0.29908058 0.3768499 0.27560863 -0.24104077 -0.439978 0.05611096
-0.23519754 -0.42600396 -0.3571756 -0.25349125 -0.017985292 -0.13203032 0.51727283 0.3731092

lstm.bias_ih_l1 f4 [96]
00000000: 2b2c d1bd 54f0 95be 417d 11be b241 d4be
00000010: c37a f53d 0620 a5be bbef 0abe 3faa d0be
00000020: f47e 30bd d2d4 4fbe 3a92 a7be 83e4 80be
00000030: ef78 14be c492 1ebe c8df aebe afdb 04bf
00000040: c75f 83be 72f4 bbbe 5bda 21bf 52d0 54bd
00000050: 4850 e9bd 91d1 18be 0f3f b3be aa2e 83bd
00000060: 73c9 3fbe 9cfa acbe 04a1 893c abb0 91be
00000070: ca71 a0be 2c25 99be d540 01be b6b6 b9be
00000080: 6295 6f3f 0feb 033f 3fe9 c03e 8f38 833e
00000090: 4aa3 f93d e38e 843e 0095 7b3e ed0c 10be
000000a0: 3871 1c3f 8ab5 c43e 456a 5f3f d5bb 8e3e
000000b0: 82ea d53e bd00 c63e 0a37 ba3e 6fa3 1b3e
000000c0: f859 f33e 33ba db3d c3b0 2e3f 3418 243f
000000d0: 7d4e 0b3f 8348 833e ddf4 a93e 3eb7 493e
000000e0: 7bcd ea3e ebb7 503e bb7c 9b3e d79b edbd
000000f0: d3fa 383f 2a96 343f fa3f 8e3d 2dda ca3c
00000100: 0010 acbc b766 b33b ff5e 90bc 85c2 98bc
00000110: 5c4f c3bd 2149 9dbc df50 aabd 900f abbd
00000120: f4db db3d 85e9 20bd 5629 0cbd 44c1 83bd
00000130: e1e3 0bbd 1507 2a3d 9b76 d1bd 1005 22be
00000140: a246 08bd 8ba7 c1bd d410 1c3d 0ad6 a6bc
00000150: d92b 73bb f8f8 613d 46fb 7e3c 89ec 503d
00000160: f0b7 36bd f0a7 073e c716 213e 9a26 cc3d
00000170: bc24 c43c 1f19 0cbd c07a 37be 2a82 47be
-0.102135025 -0.29284918 -0.14207937 -0.41456372 0.119863056 -0.32250994 -0.13568012 -0.40754887
-0.043089822 -0.20296028 -0.3272875 -0.2517434 -0.14499258 -0.15485674 -0.34155107 -0.5189771
-0.2565901 -0.36709934 -0.6322381 -0.051956482 -0.113922656 -0.14923693 -0.35009047 -0.06405385
-0.1872919 -0.3378495 0.016800411 -0.284551 -0.31336814 -0.29911172 -0.12622388 -0.3627221
0.93587315 0.51530546 0.37677953 0.25629088 0.12189348 0.25890264 0.24568558 -0.14067431
0.6111026 0.38419753 0.8727153 0.2787768 0.41780478 0.38672438 0.36370116 0.15199064
0.47529578 0.10728874 0.68238467 0.6409943 0.5441664 0.2564126 0.33194628 0.19698808
0.45859894 0.20382659 0.303686 -0.1160199 0.7225773 0.7054163 0.06945796 0.024762237
-0.021003723 0.005474891 -0.017623423 -0.018647442 -0.09536621 -0.01919991 -0.08316206 -0.08352578
0.10735312 -0.0392852 -0.03421911 -0.06433347 -0.03415287 0.04151066 -0.102277 -0.15822244
-0.033270486 -0.094557844 0.038101986 -0.020365734 -0.0037104993 0.055169076 0.015562838 0.051006828
-0.04460901 0.13247657 0.15731345 0.099683 0.023943298 -0.034203645 -0.17917919 -0.19483247

lstm.bias_hh_l1 f4 [96]
00000000: f23e 86bd 8894 35be 0b11 69be fe34 bebe
00000010: 7180 15be dcd3 9abe 2d0f 3cbe e1f6 9dbe
00000020: 7329 4bbe 6d72 26bd 5e0b fcbe 3fa8 95be
00000030: 099d aabe 1c3b bdbd 834e 42be 92ca 2ebf
00000040: b2cd 0ebe 5264 83be 0c22 d2be 9df1 f1bd
00000050: 67e5 65bd 5ef6 cfbd 6800 e0be 049c a5bd
00000060: d492 03be e23e 3fbe 6d42 73be cde4 06bb
00000070: 3655 55be fea5 7ebe 2231 c3be ef4c fcbe
00000080: f547 423f 15ec 643e 41f1 b43e ba62 c03e
00000090: 9867 b93c 337b 8f3e 3d1f 203e fef0 fe3d
000000a0: 9196 eb3e 0e2e cc3e 1f83 453f a720 393e
000000b0: fe27 033f 9b31 a03e 8c78 673e c809 e33e
000000c0: f5db bb3e 0624 463e 269a fe3e abba f83e
000000d0: 18b5 313f 11c2 aa3e bfd9 f53e 67df 813e
000000e0: beab 083f 0507 d23d 5bcf ba3d 7f62 2abe
000000f0: 9d8a 833f f9b9 443f 4df5 953d e5cb 603e
00000100: e796 373c d6b9 e8bd 172f e63d 8a24 e33c
00000110: 881f 2a3e 5564 93bd ce6d 063e 6df3 9fbd
00000120: 3fc8 893d 9e8f 8bbc 5e2b 16bd ac38 e0bc
00000130: 37a9 8fbd e9c6 2fbe 2e51 e1bb 2c18 ddbd
00000140: 3dce febd e5b2 92bd 8aba 553d 921e af3d
00000150: 7069 afbc 944b 483d 00cc 793c 39c1 0b3d
00000160: 7bb7 4b3e db1b fd3d 6c9b 3b3d fc1b 913e
00000170: 33c9 ba3d b7fa 4fbd 9840 333d 0e33 fbbc
-0.065549746 -0.17732441 -0.22760408 -0.37149805 -0.14599778 -0.3023976 -0.18365164 -0.30852416
-0.1984003 -0.04063647 -0.49227422 -0.29229924 -0.33322933 -0.0923979 -0.18975262 -0.6827785
-0.13945654 -0.25662476 -0.410416 -0.11813662 -0.05612698 -0.10154413 -0.4375031 -0.08086398
-0.12848979 -0.18676332 -0.23755808 -0.0020583153 -0.20833287 -0.24868008 -0.38123423 -0.49277446
0.7589105 0.22355683 0.35340312 0.37575322 0.022632405 0.2802368 0.15636916 0.12448309
0.4601331 0.39878887 0.771532 0.18078862 0.512329 0.31287846 0.22604579 0.443434
0.3669125 0.1934968 0.4972698 0.48579916 0.6941695 0.33351186 0.4801769 0.25365755
0.5338706 0.10255245 0.09121581 -0.16639136 1.0276676 0.7684627 0.07322178 0.2195278
0.0112054115 -0.113635704 0.112394504 0.027727384 0.1661359 -0.07196871 0.13127825 -0.07810102
0.06727647 -0.017036255 -0.036662452 -0.027370773 -0.07014697 -0.17165722 -0.0068761325 -0.10795626
-0.124416806 -0.07163028 0.05217985 0.08550753 -0.021412581 0.048900202 0.015246391 0.03411982
0.19894211 0.12358829 0.04580252 0.28341663 0.09120407 -0.05077621 0.043762773 -0.030663993

linear1.weight f4 [16, 32]
00000000: 2bcc 393d 3c5f d63b ef07 95bd edde 0fbe
00000010: 8e40 93bd 23b8 17be 1819 26bc 1959 85bc
00000020: f261 953c f8c1 f3bd 6e1e 4a3d 8fc3 fc3c
00000030: cf15 0bbe 702e e83b 20b5 c43c 4948 a3bd
00000040: ae54 e5bd c8ab bb3d 9e48 dcbc df4a 973d
00000050: 9063 3e3e 30ff 08be 8018 75bd c41b 25be
00000060: 724d c03c c081 a5bd 413c 2fbe 3475 953d
00000070: 16a3 7f3e 167f c53d 9c6d 10be b916 773c
00000080: 9332 91bc 9ef3 fbbb c1e6 603d bbda be3c
00000090: 4488 373e 6cdf 63bc b620 4b3c 5067 9cbe
000000a0: ad04 c6bd a056 aa3d 4441 2b3d 7bcc 8ebd
000000b0: ee6c b13d 5122 8cbe 754c f3bc f0ed ea3c
000000c0: 22b6 50bd 78b8 f9bd 0f35 3abd bda1 a63d
000000d0: 00e6 6d3d 456c f33d 1b83 0ebe 3581 d93d
000000e0: a2f6 713e 8b0f 563e 38e5 9c3b 926c f43e
000000f0: 7c31 31bd df1a 0ebe 6602 d2be f7cc a2bd
00000100: 81c5 73bd ba5c 59bd 2767 6dbe e91b 51be
00000110: a035 543e f162 48bd f4f2 3ebe f246 10bc
00000120: 8ef7 1dbc 39e3 843d e4c2 393e f568 57bd
00000130: e638 8dbd 3ff2 613d 5513 cf3c 1936 90be
00000140: a41c 68bb 6773 523d 1ae1 d5bd f132 3abd
00000150: bb51 0f3d 21ce babc 2a3c 743d e8ac 83bb
00000160: d960 b03d 9764 d1bb 3be7 b63d 68a1 02bd
00000170: 0ac5 b0bc 29aa c1bc b71d 5f3e 427d f6bd
00000180: fa92 c53d b63e 04be 4de2 9abd 9d44 f23d
00000190: f0da fa3c c7f5 8c3d 51a2 a33d bd6f 503e
000001a0: 3e88 5c3d f849 4e3d 176a 13be 12fb d33c
000001b0: c6d1 9abd 953f a63d 31ed e83d 8675 ad3d
000001c0: 2ef3 f43d 540d 1b3d 909e c1bc 8ec7 e6bc
000001d0: 6a40 af3d 2d41 673d 4cf8 f93d 8fd3 18be
000001e0: c60c b2bc 1523 68bd df2f 8e3d f748 23be
000001f0: 7123 38be 4309 15bd 5fb0 263e 3b41 913d
00000200: 7a31 6d3c e907 263d ec41 40bc 0716 e73d
00000210: 6864 603e 05c9 3c3d 552c 0dbe 7806 79be
00000220: b525 403e b301 2cbc 6a90 a7bd 266c 2bbe
00000230: 8201 c2bc 7fa6 31be c34f 5a3d 1b73 38bc
00000240: e5fd 13be 48d5 c33d 3fb7 623e 887c 19be
00000250: b540 6fbe da96 473e f55f 843d e142 c43d
00000260: 2b39 ee3d 4bf6 163e 8b92 e33d 2ff4 3b3d
00000270: b67c 753b 7d37 4bbd f0d5 23be 929a 8cbd
00000280: aceb 43bc bbb7 0fbe 00e5 993d 1a3b f2bc
00000290: 3a22 2e3c c805 0b3e 7c47 8ebc d74e c2bd
000002a0: 59f8 333d ea21 22bd 8aa1 6abe cde4 54bd
000002b0: 42a3 ef3c b50c 71bd 1427 10be ea81 58be
000002c0: cfd3 c4bd f274 0ebd 80ce 213e 8295 b03d
000002d0: 8671 293d ba1d be3d 3d22 50be 70c5 74b9
000002e0: 9cac 86bd 528a 243e 6918 70bd 9113 0d3e
000002f0: 902b 223e a67d 263e 2adb afbe d223 90be
00000300: e7ff acbd 29b3 0d3e feac 3fbd 99bf 983b
00000310: 3ec2 133c bb50 963b 4f08 a3bd 2985 0d3e
00000320: 1035 8cbd 4b51 c93c c7bd 313d e23a 833d
00000330: 4d99 093e 9a03 9d3d c125 b6bd f030 62bc
00000340: 94f0 d9bd f506 1d3e 3bb8 57bd 8141 ca3d
00000350: 3e10 3fbc ae84 953c 17b1 17be ee8d 983c
00000360: ec6c b63c c0c2 1d3e 9794 56bd 9006 c03d
00000370: d876 85bd 1664 af3d 5e0a 943d 261d d8bd
00000380: 2ced 323d f172 283e bd1c b03d 1144 cf3d
00000390: 485b 45be 2b88 74bd 11f8 943d 747a ffbc
000003a0: 24d3 67be 9517 993c 176a d8bd cfa3 5d3d
000003b0: 68d7 103d effa 75bc 3e4b 6a3d 5251 aa3d
000003c0: e072 473d be46 30bd af7c c63d c9b6 83bd
000003d0: a436 ddbc c55f e93d 534e fdbc 213e a73c
000003e0: 913f fb3d 9ad2 9e3d c666 95bd 8672 09bc
000003f0: 4cfa 153e 68ac d03d e416 513c 0cd3 a03d
0.045360725 0.0065421145 -0.07276904 -0.14049883 -0.07190047 -0.14816336 -0.010137819 -0.016277837
0.01823518 -0.11902231 0.049345426 0.030854968 -0.13582538 0.007085614 0.024012148 -0.07972772
-0.11197792 0.09163624 -0.026890095 0.073873274 0.18592668 -0.13378596 -0.05983782 -0.16123873
0.023474429 -0.080813885 -0.17112829 0.07297745 0.24964556 0.0964338 -0.14104313 0.015081101
-0.017724311 -0.0076889535 0.054907564 0.023297658 0.17923075 -0.013908248 0.012397936 -0.3054757
-0.096688606 0.08317304 0.04181029 -0.06972595 0.08663355 -0.2736993 -0.029699543 0.02867791
-0.050954945 -0.12193388 -0.045460757 0.08136318 0.058080673 0.11885885 -0.139172 0.106203474
0.23629239 0.20904367 0.004788067 0.47739083 -0.043260083 -0.13877438 -0.41017455 -0.0794925
-0.059514526 -0.053066947 -0.23183881 -0.20420803 0.20723581 -0.048922483 -0.18647367 -0.008805977
-0.009641541 0.06488652 0.18140751 -0.05259033 -0.06895618 0.055162665 0.025277773 -0.28166273
-0.0035417462 0.051379588 -0.10443325 -0.045458738 0.034990054 -0.022803368 0.05962769 -0.0040184148
0.08612222 -0.006390165 0.089308225 -0.03189221 -0.02157833 -0.023640709 0.21788679 -0.1203561
0.09647174 -0.12914547 -0.07562695 0.11829493 0.030621976 0.06882816 0.07989944 0.20355125
0.05384087 0.05036351 -0.14395939 0.025876556 -0.07559542 0.08117596 0.11373366 0.084696814
0.11960445 0.037854508 -0.023635179 -0.028171327 0.08557208 0.05645864 0.12205562 -0.14924453
-0.021734606 -0.05667408 0.069427244 -0.15945803 -0.1798227 -0.036385786 0.16278218 0.0709252
0.014477128 0.040534887 -0.011734467 0.11283498 0.21913302 0.046090145 -0.13786443 -0.24318874
0.18764384 -0.010498452 -0.08181842 -0.16740474 -0.02368236 -0.1734867 0.053298723 -0.011257912
-0.14452322 0.095621645 0.22140215 -0.14988911 -0.23364528 0.19491139 0.06463615 0.09583069
0.11631998 0.14742391 0.11111935 0.04588717 0.0037458367 -0.049613465 -0.1599958 -0.068654194
-0.011958044 -0.14034931 0.075143814 -0.029569197 0.010628277 0.13576424 -0.01736807 -0.09487694
0.043938015 -0.039583124 -0.22913185 -0.051976014 0.029252652 -0.05885001 -0.14077407 -0.21143308
-0.09610712 -0.034779496 0.1580143 0.08622266 0.04136803 0.09283014 -0.20325561 -0.00023343205
-0.065758914 0.1606839 -0.05861703 0.13776995 0.1583693 0.16258869 -0.34346896 -0.2815233
-0.08447247 0.13837875 -0.046795838 0.004661512 0.009018479 0.0045872605 -0.07960569 0.13820328
-0.06846058 0.024574896 0.043393876 0.064077154 0.13437386 0.076667026 -0.0889392 -0.013805613
-0.1064159 0.15334685 -0.05266593 0.09875775 -0.011661587 0.018251743 -0.14813648 0.018622365
0.022268735 0.15406322 -0.0523878 0.09376252 -0.06516808 0.08564012 0.0722854 -0.105524346
0.043683216 0.16450097 0.085992314 0.101204045 -0.19273102 -0.059700172 0.072738774 -0.03118632
-0.22639138 0.018688003 -0.1056711 0.0541113 0.035361677 -0.0150134405 0.057200663 0.08316292
0.048693538 -0.043036215 0.0969175 -0.06431348 -0.027003594 0.1139522 -0.030921137 0.020415368
0.12267984 0.07755013 -0.07294993 -0.008389121 0.14646262 0.10189134 0.012761805 0.07852754

linear1.bias f4 [16]
00000000: fe9a fabb e65f e1bc c503 823c 7311 4d3c
00000010: 3800 fdbc 0832 3a3d 1f9d e4bc 1226 1d3d
00000020: 5c4a 463d cb0e 953d 0ce1 df3c 8164 6ebd
00000030: c047 f53c 0943 0c3c 7220 57bc 99da d3bc
-0.007647871 -0.027511548 0.015870938 0.012516367 -0.030883893 0.04545787 -0.027906952 0.038366385
0.04841076 0.07278212 0.02732899 -0.058201317 0.02994144 0.008560904 -0.013130294 -0.025861071

linear2.weight f4 [1, 16]
00000000: 8edb 0e3c f6f3 903d 4981 a53c e9ac 23bd
00000010: a316 ca3c b306 193e 39be e13b 76b9 e2bb
00000020: ec6a 30bc 9ce4 8abc bc23 8d3b cb4b 4c3b
00000030: 8aec 533c 6d60 f8bc 474a 5dbb f78f d8bc
0.008719338 0.07077782 0.02020325 -0.03995982 0.024668997 0.14943962 0.0068891314 -0.0069190813
-0.01076768 -0.016954713 0.0043072384 0.0031173106 0.012934813 -0.030319417 -0.0033766197 -0.026435835
